cnn.pth (torch, 494528 bytes, 10 tensors)

conv1.0.weight f4 [16, 1, 3, 3]
000000 d4 62 36 3e 18 6a a0 3e c6 65 81 be b2 a7 ae 3e
       0.17811137 0.31330943 -0.2527296 0.34112316
000010 3c db ad 3e 16 95 07 be c6 17 cb 3d 3d 3b 41 3e
       0.33956325 -0.13240466 0.09916644 0.18870254
000020 5c 77 30 3e 7e c2 6f 3e 46 00 9c 3e 8e 64 6f be
       0.17233032 0.23414037 0.3046896 -0.23378202
000030 c8 74 29 3e 03 85 9e be 6d d0 35 bc b3 2b f7 bd
       0.16548455 -0.30960855 -0.011097056 -0.12068882
000040 29 63 1a 3e 58 08 9b 3e a1 c8 25 3e 1c 92 70 be
       0.15076889 0.30279803 0.16189815 -0.23493236
000050 2e 17 a3 be d7 de 37 3d 29 36 2c be 9b 56 39 3d
       -0.31853622 0.04489025 -0.16817535 0.04524861
000060 7c c2 b8 be b7 96 15 be fb 3f f3 3c 3a 7c 82 3e
       -0.3608588 -0.14608274 0.029693594 0.25485402
000070 ad 7f 84 3e 24 8a 89 be 44 4e ad 3e db 1f 9e 3d
       0.2587866 -0.26863205 0.33848774 0.0772092
000080 33 29 b0 3e e5 09 8c 3e 97 e5 54 be 63 d2 10 3e
       0.34406433 0.273513 -0.20790707 0.14142756
000090 37 1c 78 3e 7b 91 a5 bd 6c 1a 77 3e 28 74 47 be
       0.24229513 -0.08084389 0.24131173 -0.19477904
0000a0 9e 7d 18 3d 10 28 b8 be 4b 05 99 be 57 c5 80 3e
       0.037229173 -0.35968065 -0.2988685 0.25150558
0000b0 cf ad 7e be dd 35 90 be 1b 77 9a be 2a c3 13 3d
       -0.2487099 -0.28166094 -0.30168995 0.036074795
0000c0 e1 65 c8 3d 19 cf 86 3e 4c b6 83 3e ef 2a 86 3e
       0.09785057 0.26329878 0.2572502 0.2620463
0000d0 6b 68 38 3e 7c f8 2d 3e 38 2b 83 3e 04 11 31 be
       0.18008582 0.1698932 0.2561891 -0.17291647
0000e0 5b 07 93 3d ab c8 51 be 8b f8 07 3d 0c 4b 3f be
       0.07179137 -0.20486705 0.033196013 -0.18680972
0000f0 46 34 89 bd d7 a1 0e bd 9c b7 00 bd 1c 34 08 bd
       -0.066994235 -0.03482231 -0.031425104 -0.03325282
000100 dc 6a 83 be 67 2b 83 3e 0b 2e 65 bb e2 d3 a9 bd
       -0.25667465 0.2561905 -0.003497007 -0.082923666
000110 6a e0 24 be 01 a7 5e be 89 92 d5 3d f2 2d a8 bd
       -0.16101232 -0.21743394 0.1042834 -0.082118884
000120 29 74 a9 bb 02 d8 54 bd 0e c3 6d 3e ff fc 4a bd
       -0.005171318 -0.051963814 0.23218939 -0.049557682
000130 73 c8 c3 3d f3 10 a1 be de 13 8d bd dd 4e 98 be
       0.09559717 -0.31458244 -0.06888555 -0.29747668
000140 67 12 4c 3e 15 46 f2 bd dd 78 05 3e ce 39 8e bd
       0.19928895 -0.11829773 0.13034387 -0.06944619
000150 a2 8f ed 3c 52 b2 7a 3e 06 d7 52 be 38 ac 36 3e
       0.028999154 0.24482086 -0.20589837 0.17839134
000160 e2 d9 d5 bd 5d 08 9f 3d 1f e0 b6 bd 0f af 41 be
       -0.104419485 0.07765267 -0.089294665 -0.18914436
000170 dd ad 66 3c ef 17 8c 3d ec 13 ee 3c 31 9c 92 3e
       0.014079538 0.068405025 0.029062234 0.2863479
000180 29 51 43 3e db f4 25 be 88 ba 23 3e a4 e7 4f be
       0.19073929 -0.16206686 0.15989125 -0.20303208
000190 64 ed 4c be 40 d7 84 bd ab 03 e4 bc 75 7e 68 3e
       -0.20012432 -0.06486368 -0.02783378 0.2270449
0001a0 b5 f4 a2 3e c4 f6 86 be 8b 7c 95 be 40 7a df bd
       0.31827322 -0.26360142 -0.2919658 -0.10911989
0001b0 4a f9 63 3c f4 e3 9f be da 62 4f bd df 47 ad 3d
       0.013914416 -0.31228602 -0.05063138 0.08460974
0001c0 97 25 7f 3e b1 3d 83 3e c6 4c 89 3d 0f 29 f8 bd
       0.24916683 0.25633004 0.067040965 -0.12117206
0001d0 4c 50 48 3e 1c 05 72 be ef d8 b9 3d f6 8b a5 be
       0.19561881 -0.23634762 0.0907458 -0.32333344
0001e0 f8 4f 91 3e e7 d7 54 be 2c b2 70 3e 84 15 17 bd
       0.28381324 -0.20785485 0.23505467 -0.036885753
0001f0 e6 ea 67 3e 75 81 98 bd 33 04 76 3e 2e dd 0d be
       0.226482 -0.07446567 0.2402504 -0.13853905
000200 6e 70 9a be 8d 55 64 3e b4 2f 09 be 34 f5 95 3e
       -0.30163902 0.2229826 -0.13397104 0.29288638
000210 28 86 9f 3e 4b f3 d7 3d d5 80 4e 3e 7f 91 8a 3d
       0.3115704 0.10544451 0.20166333 0.067660324
000220 86 62 5e be f8 74 27 3e ca 6a a9 ba 6a ed 96 be
       -0.21717271 0.16353214 -0.0012925502 -0.29478008
000230 74 05 1d 3e 92 85 04 3e b8 9e a5 be d7 cd 31 be
       0.15334111 0.12941578 -0.32347655 -0.17363678

conv1.0.bias f4 [16]
000000 b6 b1 fe 3d ab 0e 86 3e 7b ae c1 bc 9c 07 44 3e
       0.124362394 0.26183066 -0.02364277 0.19143528
000010 5a 0d c0 bc 32 e3 95 bd 5f 54 94 be 06 7d df 3e
       -0.023443867 -0.07318725 -0.2897062 0.43650073
000020 81 aa 31 be 01 91 b5 bc b5 0d 95 3d 2b 19 2a 3e
       -0.17350198 -0.02216387 0.07278005 0.16611163
000030 59 b3 9f be 14 3a e2 3d c7 1e 59 3e 8a aa 46 bc
       -0.3119152 0.11046234 0.21203147 -0.012125621

conv2.0.weight f4 [32, 16, 3, 3]
000000 68 5d 96 3d df 45 8d 3d b0 87 82 bd d4 1c 90 3d
       0.073420346 0.068980925 -0.063735366 0.070367485
000010 c3 df 4c bd a9 2e 05 3d 41 e3 94 3d 67 6d 96 3d
       -0.050018083 0.0325152 0.07269908 0.073450856
000020 64 a9 a4 bd 10 47 59 3d 9f 30 bb 3d 15 f8 e4 ba
       -0.08040121 0.053046286 0.09140133 -0.0017468954
000030 2a 31 04 3d 79 05 cf 3d a2 75 2b 3c 08 56 db bb
       0.03227345 0.10108466 0.010465058 -0.0066936053
000040 be c7 82 3d bf 62 21 bd ba 56 0b 3d 99 a4 c2 3d
       0.06385754 -0.039400812 0.034018256 0.09504051
000050 6f e1 f4 3d 2b 6e 8e 3a e1 85 7d 3d 6b 91 38 bd
       0.119570605 0.0010866573 0.061895255 -0.045060556
000060 0b d3 7a bd 5a b9 52 bd c9 5c 61 bc 8c a3 cb 3c
       -0.061236423 -0.051446296 -0.013755032 0.024858259
000070 ac fb 57 3d 0d 30 15 bd 60 5c ab 3d 23 a2 1c bd
       0.052730247 -0.036422778 0.083672285 -0.038240563
000080 89 6e a6 bc ef 64 81 3d 5e 4b 8e bd 0e ca eb bc
       -0.02031638 0.0631808 -0.06947969 -0.02878287
000090 f3 5a 78 3d 3c 81 f3 bc 16 e3 4c bd bd 38 6d 3c
       0.06063361 -0.02972471 -0.050021254 0.0144788595
0000a0 98 f8 59 3d 2f 81 df bc 33 ec 14 3d 73 16 5d 3d
       0.053215593 -0.02728328 0.03635807 0.053976487
0000b0 8a 5f 8f bd 2d 1e 70 3c 92 74 0b 3d ab 50 95 3d
       -0.070006445 0.014655632 0.034046717 0.07290777
0000c0 70 e7 62 bd c4 ee 96 bd b5 6f ea 3b 8a c4 99 bd
       -0.055396497 -0.0736976 0.00715443 -0.0750819
0000d0 6a c1 8e bd cb e6 59 3d e0 43 99 3c e7 bb f5 3d
       -0.069704846 0.053198617 0.018709123 0.1199873
0000e0 0e 93 3e 3c 34 93 c8 3b be 93 f9 3d 77 89 f1 bc
       0.01163174 0.0061210636 0.12186383 -0.029484494
0000f0 bf fc 6f bd c3 84 ac 3d 40 d0 01 bc 0d 05 5a 3d
       -0.058590647 0.0842376 -0.007923186 0.053227473
000100 fd 40 ae 3c bb 29 19 3e 3f 6e 68 3d ce 27 9b 3d
       0.021271223 0.14957325 0.056745764 0.075759515
000110 5f d5 ef 3d 5c da d7 3d 48 be ea 3d 4f 3e 55 3d
       0.11710619 0.105396956 0.114620745 0.052061375
000120 cb 1f a0 3c 2e f6 1e bc 2a 18 a8 bd bc b6 d3 bc
       0.01954641 -0.0097022485 -0.08207734 -0.02584397
000130 36 52 82 bd 19 c5 29 3d d1 7f 89 3d 64 3b a5 bc
       -0.06363337 0.041447733 0.06713832 -0.020169921
000140 f8 c3 85 3d 00 ba 9a 3c 0d b2 00 3e d2 7b a3 bb
       0.06531519 0.01888752 0.12567921 -0.0049891258
000150 19 b9 61 bd 35 45 1a 3d e8 92 54 bd d1 9a 09 3d
       -0.055108164 0.037663657 -0.051897913 0.03359491
000160 0e 78 4c 3b 64 b3 e8 bb cc 5b f5 3c 5a 66 ac 3d
       0.0031199488 -0.007101463 0.029950999 0.084179595
000170 11 a7 8e bd c4 f9 8c 3b 3c 80 59 ba b7 10 a4 bb
       -0.06965459 0.0043022353 -0.00082970015 -0.0050068754
000180 53 0e 8c bb 9f e6 ad bc 11 ab 1a bd 7b 7b 7e 3d
       -0.0042741685 -0.021228133 -0.037760798 0.06212948
000190 85 af c9 bb e7 bc ab bc 9c be 1f 3d d5 7d 82 3d
       -0.0061549568 -0.0209641 0.03900014 0.06371657
0001a0 8e c1 91 3d 3b 70 e7 bc a5 d7 9f 3d aa 53 f9 bc
       0.07116996 -0.028251758 0.07804803 -0.030435402
0001b0 1c 57 90 3d cb 09 69 3d 21 a1 a5 bb e4 f7 7c bb
       0.07047865 0.056894105 -0.0050546085 -0.0038599903
0001c0 76 31 29 3d 4d 93 22 bd b5 1d 41 bd 39 96 4b bd
       0.041306935 -0.03969126 -0.04714747 -0.04970381
0001d0 d3 0d 46 bd aa bd c8 3c 67 75 e6 bc 1b 68 88 bd
       -0.048353028 0.024504501 -0.028132154 -0.066604815
0001e0 51 ea c3 bc 40 c9 0f bd 4a b7 af 3d 77 85 36 bc
       -0.023915442 -0.035104036 0.085798815 -0.011140219
0001f0 e6 0a 5b 3d 53 b3 16 bd 7e 00 45 3c 4f 05 cf 3d
       0.05347719 -0.03679211 0.012024043 0.101084344
000200 5e 48 ab b9 0c 2c dd 3d 85 f7 d8 3c bc 7a e5 bc
       -0.0003266958 0.10799417 0.026485214 -0.028012626
000210 38 9e 07 bc 4b 1d 82 3d 9a 68 8e 3d 8d b5 f9 3c
       -0.008277468 0.063532434 0.06953545 0.030482078
000220 03 52 d6 3c 19 82 d5 bc 5f 3a 00 bd 8a 0c e5 3d
       0.026162153 -0.026063012 -0.031305667 0.11184032
000230 2d 90 92 3c 67 92 85 3d d5 ae 86 bc 7d 21 44 3d
       0.017891014 0.06522065 -0.016440788 0.0478835
000240 be f8 c8 3b 49 73 b0 3b ea bf 01 bc 56 ba 55 bd
       0.006133168 0.005384837 -0.007919291 -0.052179657
000250 c0 7d 87 bd 11 2a b5 3c d6 27 d3 bd c4 95 be bd
       -0.06615782 0.022114785 -0.103103325 -0.09305909
000260 2a 4c d0 bd 2f c0 85 bd e9 ee 11 3d 7f 8f 07 3c
       -0.10170777 -0.06530797 0.035628233 0.008273958
000270 03 ed b0 bc 49 60 69 3d cc ee 0d bd ff d0 2c 3d
       -0.021597391 0.05697659 -0.034651563 0.0421915
000280 1b 87 f3 3b 1d 1f d9 3c 93 24 a9 bd d3 3a 95 3d
       0.0074318773 0.026504094 -0.08258929 0.072866105
000290 a3 6b 9b 3d f0 c6 85 bd e0 4f f3 bc 74 69 40 3d
       0.075888894 -0.06532085 -0.029701173 0.046975568
0002a0 61 2a d8 bc 0d eb 87 3d cb 85 0c bd 4c c0 d9 bc
       -0.026387395 0.06636629 -0.034307282 -0.026580952
0002b0 c2 24 65 3d f3 8c be 3d e8 c0 73 3a a7 85 35 3a
       0.055943258 0.09304228 0.00092984596 0.0006924518
0002c0 04 f7 61 3c a0 b6 92 ba 56 5b 6f bb e5 db 9e bd
       0.013791803 -0.0011193343 -0.0036522946 -0.07756785
0002d0 11 bd 09 3c 6e 9e af 3d 8c df 54 3d 33 78 82 3c
       0.008406893 0.0857514 0.051971003 0.015926456
0002e0 ea e5 56 bd 6f ca 84 bd 58 68 84 bd c8 c9 98 bd
       -0.052465357 -0.06483924 -0.064652145 -0.07460362
0002f0 f6 ba 2d bd 9e c0 aa 3d dc 0d b0 bd ea 09 d3 bc
       -0.042414628 0.0833752 -0.085963935 -0.025761563
000300 96 1e a4 bd 58 82 7c bd e1 14 d2 bd 6a 54 ad bc
       -0.08013646 -0.061647743 -0.102578886 -0.021158416
000310 30 2d 68 bd e2 39 8a bd 37 33 08 bd 86 ac 46 3d
       -0.05668372 -0.067493215 -0.033251967 0.048504375
000320 ef d9 dd 3b 5d 96 c9 3d ce 22 c0 bc 70 44 e1 ba
       0.0067703645 0.09843133 -0.023454096 -0.0017186534
000330 25 4d 0a 3c 0f 2e b2 bd 90 47 83 bd b8 66 bf bd
       0.008441244 -0.08700191 -0.06410134 -0.09345764
000340 f9 9c 09 be ba da 03 be 86 12 91 bd b4 54 90 3b
       -0.13438787 -0.12876406 -0.07083611 0.0044046286
000350 6e aa da bd 90 f7 d5 bc 0e e8 a7 bc bf b4 85 bd
       -0.10677038 -0.026119024 -0.020496394 -0.06528615
000360 86 14 b5 3d 4f 00 14 bd ec b1 5e 3d f1 06 55 3c
       0.08841805 -0.036133107 0.0543689 0.013002143
000370 14 20 31 3d a6 73 cd 3d dd d6 87 bc b1 ef 22 bd
       0.043243483 0.10031824 -0.016581947 -0.03977937
000380 7c 66 48 3d f6 0e 96 bd f4 2d 5c bd be 07 31 bd
       0.04892586 -0.07327072 -0.05375476 -0.043220274
000390 93 ff 38 bd 67 53 ab bd 9a a4 a2 bd c6 27 41 bd
       -0.04516561 -0.08365517 -0.079415515 -0.04715707
0003a0 e3 2f d1 bd 73 16 b3 bd 8a 14 de 3b c8 57 7d 3b
       -0.10214212 -0.08744516 0.006777351 0.0038657058
0003b0 26 7b a3 bd e1 00 d4 bd f9 1c 22 bd 58 6d 20 bd
       -0.07982473 -0.1035173 -0.03957841 -0.03916678
0003c0 32 56 2a 3c 48 93 8d 3c a7 7e 9c 3c 23 c1 03 3b
       0.010396527 0.017282143 0.019103361 0.0020104132
0003d0 03 a4 a3 3d 63 82 78 3d 42 d1 84 bd 4f 7c a9 3c
       0.07990267 0.06067122 -0.06485225 0.020689158
0003e0 bb 87 79 bb 73 5f 10 3d 31 1e 89 bd c1 62 8b 3d
       -0.0038075286 0.035247277 -0.06695212 0.06805945
0003f0 c0 c5 ba 3d b8 aa 3b 3d 92 bb 96 ba 69 f9 d7 bd
       0.09119749 0.045817107 -0.0011499992 -0.10545618

conv2.0.bias f4 [32]
000000 ee 06 38 bc 71 6a f3 bc 2e 81 22 3d 75 de bf bd
       -0.011232121 -0.029713841 0.039673977 -0.09368602
000010 37 d9 60 bd 70 14 fd bc 01 4e f4 3a 3f b6 6a 3e
       -0.054894652 -0.030893534 0.001863897 0.22921084
000020 69 58 d9 3d a3 71 86 3b 41 2c c8 bc e4 ef f8 bc
       0.10612566 0.004102902 -0.024435164 -0.030387826
000030 bb b6 04 3d 95 ad 3e bd d4 be c0 bc 70 58 2c 3e
       0.032400828 -0.04655226 -0.023528494 0.16830611
000040 ea b1 ec bc 0f 7f 22 3e a7 bc b0 bd d7 d4 c6 bd
       -0.02889343 0.15868782 -0.086297326 -0.09708565
000050 49 81 de 3b c4 53 ea 3c 2b 7f 7f bd 18 52 c9 bc
       0.0067903143 0.028604396 -0.062377136 -0.024575278
000060 07 a5 32 3d 73 82 bf bc 6e e5 62 bd 3b 98 b0 bd
       0.043614414 -0.023377633 -0.055394582 -0.08622786
000070 36 24 13 3b 79 02 16 be c5 92 a8 bd 82 60 24 bd
       0.0022452003 -0.1464938 -0.08231119 -0.0401311

conv3.0.weight f4 [64, 32, 3, 3]
000000 98 4d e4 bc 80 78 22 bd 5b 15 03 3d 34 92 f1 3a
       -0.02786903 -0.0396657 0.032002788 0.0018430413
000010 59 a4 97 3c 8d 6f c6 3c da 3d 52 bc d2 92 52 3d
       0.018510984 0.024223113 -0.012832129 0.05140955
000020 f5 fc 4c 3d 41 1d d0 3c a9 9a 20 bd ad 63 95 bc
       0.050045926 0.025404574 -0.039209995 -0.018236006
000030 af a5 05 3d 10 79 19 bc 66 45 45 bd 96 27 8e bd
       0.03262871 -0.009367242 -0.048161887 -0.06941144
000040 00 3b 5f bd ce 70 70 bc 05 9f 17 bd fb a6 18 3c
       -0.054499626 -0.014675332 -0.037016887 0.009317155
000050 35 1d 8a bc 3a f0 d0 3c ae 47 bf 3b f8 53 b3 bc
       -0.01685963 0.025505174 0.0058374023 -0.021890625
000060 f1 61 27 3c 17 7e c8 3c f6 00 0b 3d 75 37 ef 3c
       0.010216222 0.024474187 0.033936463 0.029201249
000070 21 a0 67 3d 28 c1 ab 3b d1 86 5f 3b f6 6d a0 bd
       0.056549195 0.005241532 0.0034107456 -0.078334734
000080 2e 9a 3a bd 65 45 af 3c 2c 85 96 bc 2b 50 e1 bc
       -0.045557193 0.021395395 -0.018374048 -0.027504047
000090 1f f4 42 3d 32 65 25 bd 5a e4 7f bc de af 9c 3c
       0.047596093 -0.04037971 -0.015618408 0.019126829
0000a0 ac c0 90 bd 6b 04 3a bd 57 fe 1e 3b ad 88 ec bc
       -0.07067999 -0.04541437 0.0024260485 -0.028873766
0000b0 34 42 61 bc 6d 1b 7f bd a7 93 ea bc 03 b3 84 bd
       -0.013748694 -0.062282015 -0.02863486 -0.06479456
0000c0 a0 cf 2b bd 2d a2 7b 3c 4f bb ef 3c 36 46 00 3d
       -0.041946054 0.01535849 0.02926412 0.03131696
0000d0 0e 17 23 3d c5 dc c2 bc f5 6a a1 ba 25 60 1f 3d
       0.03981691 -0.023786912 -0.0012315201 0.03891005
0000e0 9c c5 04 3d 3a 19 79 bd 1b e3 8d bd c8 a6 0f 3d
       0.032415017 -0.060815074 -0.069280826 0.035071164
0000f0 2f f5 a0 bd 2b 9e 2c 3c e4 95 99 bd 39 4c 63 bd
       -0.07859265 0.010535757 -0.074992925 -0.055492613
000100 f5 c3 6a 3d 12 c4 61 bd f7 39 06 3d 15 97 fa bb
       0.057315785 -0.055118628 0.032770123 -0.007647405
000110 16 42 f5 3c f7 ae 0d 3d 53 83 46 bb 21 fc a8 bc
       0.029938739 0.034590688 -0.0030290678 -0.020628037
000120 52 64 f5 bc ed de 64 bd d7 58 a7 3c 7a 0a b9 bc
       -0.029955063 -0.05587666 0.020428104 -0.022588003
000130 d2 26 89 bd 10 ff 24 bd 63 bb f8 bc 98 6d 69 bd
       -0.066968575 -0.04028231 -0.03036279 -0.056989282
000140 a5 f1 85 bc 0a 24 03 3d 4a 98 0a bd 41 0e 9f 3c
       -0.016350577 0.03201679 -0.03383664 0.019415976
000150 38 96 68 bd e9 3a 5e 3d 71 ec 7b bb ac 09 4f 3d
       -0.056783885 0.0542554 -0.003844049 0.050546333
000160 10 66 b9 bc cf 32 b6 bb 78 99 c0 3c 30 1a 21 3c
       -0.022631675 -0.005560256 0.02351068 0.009832904
000170 c6 96 49 3d 0f c0 25 bd d6 b3 14 3d 56 69 bb bc
       0.049216054 -0.040466364 0.036304317 -0.022877377
000180 b2 ec f2 3c 98 5c 1c bd 79 b3 f9 3c b7 32 27 3d
       0.02965388 -0.03817424 0.030481087 0.04081985
000190 3f fb f3 3b ee 2b 26 ba 0d c0 77 3b 11 e2 26 bd
       0.0074457224 -0.00063389435 0.003780368 -0.040742937
0001a0 87 05 7b 3c 2b 43 03 3d b9 3c 3c 3d 7e 11 34 3d
       0.015321142 0.03204648 0.045956347 0.043961994
0001b0 8d ef 16 3d d2 7c 35 bd 63 d5 5c 3c 47 50 58 bb
       0.036849547 -0.04430849 0.01347861 -0.0033006833
0001c0 cf f8 cb bc 2f 41 53 bd 62 9b 4d 3d 76 6b 15 bc
       -0.024898915 -0.051575836 0.050197013 -0.009119859
0001d0 73 54 92 3c 19 9e 8e bc 4b 39 05 3d 88 16 29 bc
       0.017862534 -0.017409371 0.032525342 -0.010320313
0001e0 ca 6a 3b bd be 09 00 3c 13 3b 8e 3c 9f 3d 5a bd
       -0.04575614 0.007814823 0.017362153 -0.053281423
0001f0 d1 cd 04 3d 8d 5f bf 3c 88 c2 1b 3b 21 18 09 3d
       0.032422844 0.023360992 0.0023767073 0.033470277
000200 79 9d e0 bb 5a 26 ad 3c 99 b0 34 3b b5 e2 69 bc
       -0.0068547097 0.021136452 0.002757108 -0.014275243
000210 4d 3d f6 bc c4 56 0b 3d 5a 56 c4 3c 44 f7 97 bd
       -0.030058527 0.034018293 0.023966957 -0.07420209
000220 65 47 bf bd 97 51 0b 3c 7f 5f 8d bd be 85 20 3d
       -0.09339789 0.008503339 -0.0690298 0.039190046
000230 b2 df 0b 3c 24 e8 0c 3d ab c9 06 bd b4 ef 28 3d
       0.00853722 0.034401074 -0.03290717 0.041244224
000240 3c b5 5c 3d 1d 4e 51 bd 0e 1a 12 bd f9 a9 43 3c
       0.053883776 -0.051099885 -0.03566938 0.01194238
000250 45 ad 3f ba 93 08 7c bd 73 03 c3 bc 31 36 83 bc
       -0.0007311891 -0.061531615 -0.023805356 -0.016017051
000260 60 21 13 bd c8 a4 f6 bb fe e1 a6 b9 4e 33 e4 bc
       -0.0359205 -0.0075269677 -0.00031830365 -0.027856495
000270 11 0f 90 bd 6b 48 28 3c b7 78 54 bd 54 6a a2 bd
       -0.07034124 0.010271172 -0.051872935 -0.07930437
000280 31 6c 87 bd ea b0 d2 3c f7 01 df 3c 2b cf f0 bc
       -0.06612433 0.025719125 0.027222617 -0.02939566
000290 3c 0d bb bb bb 32 3f bd f9 49 c5 bc 67 f7 ac bc
       -0.005708365 -0.04667924 -0.024083124 -0.021114064
0002a0 60 00 9f bc b3 c6 09 3d e2 0e a8 bc 1c 7c 0c 3d
       -0.019409359 0.03363676 -0.02051491 0.034298047
0002b0 ea 0f fd bc 72 25 9a bd 54 96 1c bd d2 18 47 3c
       -0.030891377 -0.075266734 -0.0382293 0.012151914
0002c0 b4 c2 f6 3c 39 d0 14 3c 3a bd 8c 3b e9 31 7f b9
       0.030122139 0.009082847 0.0042950185 -0.00024337288
0002d0 8c 34 48 3d f7 31 0e bd 78 d5 12 bc 85 0b 3c 3d
       0.048878238 -0.03471562 -0.008962028 0.045909423
0002e0 e7 13 d1 bc 10 65 73 bd 22 4e d0 3c 46 5b a0 bd
       -0.025522185 -0.059422553 0.025427882 -0.07829909
0002f0 88 c7 a6 bd f2 19 52 3d 49 d7 c4 3c 0d 12 33 bc
       -0.08143526 0.051294275 0.024028437 -0.010929597
000300 7f 35 52 bd 9f d7 8c bd 25 4a 96 bd db c9 12 bd
       -0.05132055 -0.06877064 -0.07338361 -0.035837036
000310 d0 bb 1b bd 46 0e 94 3c dd 16 2f 3d db 55 27 bd
       -0.03802091 0.018073212 0.042746413 -0.040853363
000320 f4 74 35 3d 79 b0 f0 bc c4 aa 5e 3d 46 fb 2e 3d
       0.04430099 -0.029381024 0.054362074 0.0427201
000330 e0 b1 11 bd 27 4b 27 bc ee 21 08 bd 5d 45 70 bb
       -0.035570025 -0.010210789 -0.033235483 -0.0036662437
000340 7d a3 2a bd 1c 41 d5 bc 8d 09 15 bd 97 a9 79 bc
       -0.04165982 -0.026032023 -0.03638606 -0.015238187
000350 d5 ae 91 bd ad d6 f3 3c 7f 5e 60 bd 89 5b 05 3d
       -0.07113425 0.029765451 -0.05477762 0.032557998
000360 0d ad 40 3d df 64 35 bd 6e 88 18 3d 53 13 7e bb
       0.047040034 -0.04428565 0.037239484 -0.0038768842
000370 9c 4c b7 3b 6c 06 a3 bb 88 f0 9d bd 49 95 09 bd
       0.0055938493 -0.004975131 -0.07711893 -0.033589635
000380 9f f8 a6 3b aa bb 9d 3c a0 eb df 3c c9 a4 6f bd
       0.005095556 0.019254524 0.027334034 -0.05850676
000390 f9 c4 01 3c 87 cf 46 bd ae 8d 9b bc e8 1c 44 3d
       0.007920497 -0.048537757 -0.018988457 0.04787913
0003a0 6b 8d 89 bd e1 b7 4d 3d b5 9d 4f bd 35 58 39 3c
       -0.067164265 0.05022419 -0.05068751 0.011312534
0003b0 90 1d f4 3b 46 7b 79 bc b1 17 f9 3b c2 ed 20 3d
       0.007449813 -0.015227145 0.007601701 0.039289244
0003c0 80 04 b4 bc e8 2d 8b bd a3 bc 5f bd 0b d4 57 3d
       -0.021974802 -0.06795865 -0.054623257 0.052692454
0003d0 19 61 ed bc 51 28 4c bc e8 56 31 bd 63 cc dc bc
       -0.028976964 -0.012460784 -0.04329577 -0.026952928
0003e0 70 56 4d bd e7 74 8b bd c0 c0 93 bc 4a b1 90 bc
       -0.05013126 -0.06809407 -0.018036246 -0.017662663
0003f0 e7 29 a2 bc 4c 99 ab bc 4f 8e aa 3c e4 2a 0a bd
       -0.019795371 -0.020947121 0.020819811 -0.03373231

conv3.0.bias f4 [64]
000000 f1 20 1b bc be 83 fd bc 34 da 3a 3d 3f 31 10 3d
       -0.009468303 -0.030946609 0.04561825 0.035203215
000010 85 c0 74 3d 4e 9e b5 bd f4 2c 0c 3e 21 ed 83 bd
       0.059753913 -0.08868085 0.13689023 -0.06441713
000020 24 39 c7 bc 27 05 48 3d df 20 b6 3d 86 8f 79 bd
       -0.024319239 0.04883304 0.088929884 -0.06092789
000030 ef ab 63 bd 68 bf 82 bc 36 44 4e bc e9 2d 2c 3e
       -0.05558389 -0.01596041 -0.012589505 0.16814388
000040 b3 25 ca bd 02 a8 57 bd 8d 86 2f 3d 53 a3 8b bd
       -0.09870472 -0.05265046 0.042852927 -0.06818261
000050 b6 40 a9 bd ca 97 4a 3e b7 ca b4 bd 29 d7 84 bc
       -0.08264296 0.19784465 -0.08827727 -0.016215878
000060 22 73 eb bd 45 01 65 bc d5 af 4c bd ca ca 41 3d
       -0.11496569 -0.013977353 -0.049972374 0.047312535
000070 33 3b 93 bc 46 ab b2 3c 66 70 b2 bd 02 ed e1 bc
       -0.017972564 0.021810185 -0.087128446 -0.027578834
000080 73 5f 95 bd 9c 92 a5 bd df e9 89 bd c9 80 3b bc
       -0.07293596 -0.08084604 -0.067340605 -0.011444279
000090 ed 6d 74 bd db f6 10 bd 21 90 86 bd 3d 9f 2f bd
       -0.059675146 -0.03539167 -0.06570459 -0.04287647
0000a0 03 0f 96 bd d0 53 ae 3d 6c a4 25 bd d1 3f 8f 3d
       -0.07327082 0.0851208 -0.040440008 0.06994594
0000b0 a7 7a 49 bc a3 88 20 bd e7 4e 5e 3e d5 5a 6f bd
       -0.012297309 -0.039192807 0.21709786 -0.058436234
0000c0 17 65 4a bd 48 3a bb bc f8 0d 98 bc e5 79 90 bd
       -0.049412813 -0.02285494 -0.018561348 -0.070544995
0000d0 45 dd a1 bd 0d 89 00 be f1 11 d2 bc 21 2d a3 bd
       -0.07903532 -0.1255228 -0.02564332 -0.07967592
0000e0 e3 b2 a6 3c 9c d9 74 bd eb 08 2d bd a5 b9 0d 3e
       0.020348972 -0.05977784 -0.042244833 0.13840349
0000f0 79 b7 b1 bc 21 a2 0e bd b5 76 93 bd 71 fe 28 3e
       -0.021693932 -0.034822587 -0.07200376 0.16503312

conv4.0.weight f4 [128, 64, 3, 3]
000000 88 8f 85 bc bd c0 40 bd 73 80 19 bc 7e 5a 08 3d
       -0.016303793 -0.04705881 -0.009369004 0.033289425
000010 7e 67 d7 3b 3a e8 82 3c 9d 79 a3 bc 57 3a 04 3d
       0.0065736165 0.015979875 -0.01995545 0.0322822
000020 82 20 af bc dc 7c 07 3d c1 66 25 3b 4c b3 65 bc
       -0.021377806 0.03307806 0.0025238248 -0.0140197985
000030 cf 74 22 bd 6d ce cb 3c e6 21 04 3d 9e 3d 42 bc
       -0.03966218 0.024878705 0.03225889 -0.011855511
000040 45 1f 43 bd d4 97 2b bd c0 ef 33 bd 24 31 a4 3c
       -0.047637243 -0.04189284 -0.043929815 0.020042963
000050 c4 ff 12 bd 0e 9d cd bb c5 c0 11 bc 69 c4 9a bc
       -0.03588845 -0.006274826 -0.0088960575 -0.018892484
000060 d8 69 c4 3c fc a5 d1 bc 15 de 33 bd d0 11 fa 3c
       0.023976251 -0.025591843 -0.043912966 0.030526072
000070 18 96 e0 38 29 cc a6 bb 53 08 27 bc e2 2a a5 bc
       0.000107091095 -0.0050902558 -0.010194856 -0.02016205
000080 4e 0a b0 3c 1a 12 01 3d 1e 35 c8 bc 0e c4 b8 3c
       0.021489289 0.031511404 -0.02443939 0.022554424
000090 3d 42 39 bc 6a 43 27 bd 94 33 9d bc b7 a8 fe bc
       -0.011307296 -0.040835775 -0.019189633 -0.031086309
0000a0 bf 3e 0c bd 20 c6 d6 39 eb 7b a1 3c 55 ab f8 3c
       -0.034239527 0.00040964875 0.019712409 0.030355135
0000b0 99 64 17 bd d0 36 65 3c 40 92 41 bd 87 32 a8 3c
       -0.03696117 0.013990119 -0.047258615 0.020531906
0000c0 e9 07 9a 3c 83 58 9b 3c c3 c0 ab bb 13 b1 d3 39
       0.0188026 0.018963104 -0.005241485 0.00040376987
0000d0 5b e6 b8 b9 f5 b8 16 bd f0 3d 7a bc 4e ea 41 bd
       -0.00035266843 -0.036797483 -0.015273556 -0.04734259
0000e0 e2 f9 21 3d 72 05 be bc a7 43 fd 3c 08 22 e4 bc
       0.039544947 -0.023195956 0.030916048 -0.027848259
0000f0 77 76 72 bc 60 fb 08 bd 16 88 2d bc d0 94 17 bd
       -0.014798752 -0.033442855 -0.010591527 -0.037007153
000100 b3 de 06 3b 67 c4 4e 3c c2 d3 ed bc b4 56 ed bb
       0.0020579516 0.012620068 -0.029031638 -0.007243002
000110 1c 1a a4 bc c3 26 78 3c cc e8 f1 bc 50 e0 d2 3c
       -0.020031981 0.01514596 -0.029529952 0.025741726
000120 c5 89 32 bd 2d 39 0a bc b2 40 0e 3d 79 07 05 3d
       -0.04358842 -0.008436483 0.034729667 0.03247783
000130 2d 97 80 3c 2d d8 86 bc 86 09 94 bc 27 1c 0d bd
       0.015697086 -0.016460503 -0.018070947 -0.034450676
000140 5d e3 68 3c 82 8c e8 3c 69 a1 8e 3c 9e d5 ae bc
       0.014214364 0.028387312 0.01741095 -0.021342095
000150 82 a0 36 bc 11 c5 2d bd 1d 8a 09 bd 24 22 61 3c
       -0.0111466665 -0.042424265 -0.03357898 0.01374105
000160 c2 e4 2d bc 9b 76 2b bd 93 45 23 3c 5d 66 d6 3c
       -0.010613622 -0.041861158 0.009965318 0.026171857
000170 3a 00 11 3b ca f7 d0 bb 39 98 a8 3c c6 7b cd bc
       0.002212538 -0.006377195 0.020580398 -0.025083434
000180 d6 87 4f bc 1d 83 9f 3c 96 87 1b bc e1 3c ad 3c
       -0.012666663 0.0194717 -0.009492775 0.021147193
000190 df 52 1f bb 12 49 1e bd 4f 7d 8c bc 04 f2 d6 bb
       -0.002431087 -0.038643904 -0.017149596 -0.006559612
0001a0 e1 a3 00 bd c7 cb 28 3c cb 0c 06 bd 12 79 a5 bc
       -0.031406287 0.010302491 -0.032727044 -0.020199332
0001b0 ac 70 a4 bc db 3b 0e bd c0 f3 4c 3b 6d 62 23 bd
       -0.020073257 -0.03472505 0.0031273216 -0.039888788
0001c0 41 07 1e bd 95 19 d4 bc 43 3e 4e 3c bf be 9f bc
       -0.038581137 -0.025891105 0.012588087 -0.019500135
0001d0 d2 b4 f2 3c 37 81 8c 3c 46 3c 08 3b 01 aa 8e 3c
       0.029627237 0.017151458 0.002078788 0.017415049
0001e0 85 43 cd bb cc e4 bd bc 5e e1 06 3d b2 04 9d 3c
       -0.0062641525 -0.023180388 0.03292977 0.019167278
0001f0 35 70 31 bd 70 af 06 bd 42 3d 40 bc cf 48 fe bc
       -0.0433199 -0.032882154 -0.011733355 -0.031040577
000200 1b 2a 01 bd 54 88 14 bd cf ee bb 3c b7 c2 9c 3b
       -0.031534296 -0.036262825 0.022941021 0.004783954
000210 c2 75 78 3c ad a8 b4 bb 9a 41 9a ba a7 ea 44 bb
       0.015164794 -0.005513272 -0.0011768818 -0.003004709
000220 ec d6 59 bc 8e d6 dd bc a0 32 09 bd eb ec 01 bd
       -0.01329587 -0.027079847 -0.033495545 -0.031720083
000230 c2 74 e6 3c ea 1b 98 bc e8 55 72 bc 73 47 02 bd
       0.028131846 -0.018567998 -0.014790989 -0.03180642
000240 6b 6b 46 3b 9c 41 5c 3c bc ee 01 bd 91 3a 3e bd
       0.0030276428 0.013443377 -0.031721815 -0.046442572
000250 05 b8 91 ba ed f9 04 bc ea 35 4f bc bf 69 6a 3c
       -0.0011117464 -0.008116228 -0.012647131 0.014307438
000260 76 4a b4 ba e0 67 80 bc 76 07 fd 3b df 73 fa bc
       -0.0013755101 -0.015674531 0.0077218367 -0.03057283
000270 64 ec 0f 3c 84 72 48 ba 32 ac 3d bd 4a 28 f5 bc
       0.008784387 -0.00076464587 -0.046306796 -0.029926438
000280 c7 9a da bc e9 c2 d3 3c c5 b8 cf 3c f0 e0 21 bb
       -0.026685132 0.025849776 0.02535666 -0.0024700724
000290 7c a1 2b bc 4e 1b bb 3c be 98 86 bc 0b b0 35 3c
       -0.010475513 0.022840168 -0.016430255 0.011089335
0002a0 b9 78 3c bd 92 c0 34 3c 8e 2c ff bc 45 9a 4b bc
       -0.046013568 0.01103224 -0.031149175 -0.012426917
0002b0 d8 e9 c6 bc f1 f1 02 3b dc 99 ec 3c 1c 59 f4 3c
       -0.024281427 0.0019980634 0.02888196 0.029827647
0002c0 fb bc c4 bc 1b cd 1d bd bf 57 6f bc c0 21 2d bd
       -0.024015894 -0.038525682 -0.014608323 -0.042268515
0002d0 68 cd ff 3c a5 0f 56 3c a6 a6 30 bd 6b a6 f1 3c
       0.031225875 0.013065253 -0.04312768 0.0294983
0002e0 1a 29 16 bc 9a 22 1d bd fb e7 15 bd d7 4d 42 bd
       -0.009165073 -0.038363077 -0.036598187 -0.047437515
0002f0 36 e1 b3 bc 18 9d fe 3c 68 c5 8f 3c 28 3e 27 bd
       -0.021957975 0.031080768 0.017550185 -0.04083076
000300 b2 5d a4 3a fb 79 18 bd d4 57 b9 3c bb 44 9d bc
       0.001254013 -0.037225705 0.022624888 -0.019197812
000310 92 4e b0 bc c6 29 2f 3c 97 57 bf 3c 1f 89 16 bd
       -0.02152184 0.010691112 0.023357196 -0.036751863
000320 9f 4c a4 bc c9 ee 3e bd fd 4a 06 bd ae f4 fe b9
       -0.020056067 -0.046614442 -0.03278636 -0.00048628956
000330 bb 09 20 bc 23 05 1c bd 74 2e 34 bc 56 94 d0 bc
       -0.009767945 -0.038090836 -0.010997403 -0.025461357
000340 d0 2f 04 3c b9 93 0e bd 19 f4 db bc 80 c5 b2 3c
       0.00806804 -0.034808848 -0.026849793 0.021822691
000350 a5 e5 fc bc fd a8 3a bc 35 19 10 3d 4d 7c ec bc
       -0.030871222 -0.011392829 0.03518029 -0.028867865
000360 a7 9e e6 3c be 59 37 bd 55 10 7c bc f2 63 df 3b
       0.028151823 -0.04476332 -0.015384753 0.0068173343
000370 cd aa f2 3c b1 85 1a 3c cc 23 94 3b 1e c7 df 3c
       0.02962246 0.009431289 0.004520869 0.027316626
000380 d6 a5 0c 3d ec 54 df bc 8c 07 3c bd f8 aa 37 bc
       0.03433784 -0.027262174 -0.045905635 -0.011210196
000390 2d ea dc bc 6d b5 12 3c de 89 3a bc 31 00 f0 bc
       -0.026967132 0.008954388 -0.011385409 -0.029296966
0003a0 62 50 09 bc ca 33 3a bc d1 df 8c b9 93 be 3b bd
       -0.008380981 -0.011364887 -0.00026869637 -0.045836043
0003b0 50 f1 88 bc de 12 f3 bc 7e 2a 28 bd 16 b7 32 bd
       -0.01671663 -0.029672083 -0.04105615 -0.043631636
0003c0 a7 ed 07 bc e5 56 34 bd 45 cb a9 bc 73 a7 01 bd
       -0.008296407 -0.04402818 -0.02072681 -0.031653833
0003d0 4d ee 6f bc 22 63 d1 bc 04 28 b4 bc 93 83 b9 bc
       -0.014644218 -0.025559966 -0.021991737 -0.022645747
0003e0 78 b2 2b 3b 33 5e e2 bc 7d 61 33 3c c1 c2 96 bb
       0.0026198905 -0.027632808 0.010948536 -0.004600853
0003f0 e4 1b 0a 3d b3 96 86 3c ee 21 f4 3c 9e 87 10 bd
       0.033718005 0.01642928 0.029801335 -0.035285585

conv4.0.bias f4 [128]
000000 d5 0e 21 bc 5f 44 7e bd 14 f2 9a bd 7f db c0 bd
       -0.009830196 -0.062076923 -0.07565704 -0.094168656
000010 e2 f9 80 3c 15 6b ab 3c de b9 13 3e 89 2f 4c bc
       0.015744153 0.020925084 0.14426371 -0.012462505
000020 dc ff 2e 3e 1d 3c a4 bc ff 8e ed 3c 4d b3 21 3e
       0.1708979 -0.020048195 0.02899885 0.15791054
000030 38 fa 04 3e 9f e7 e0 3d ac 51 94 bd e2 1d ac bc
       0.12986076 0.10981678 -0.0724214 -0.021010343
000040 6d 8c d1 bc 9b a4 1c bd ba 90 84 bc 2c 3e 09 bd
       -0.025579656 -0.038242918 -0.016182292 -0.033506557
000050 32 6d cf bd 50 db 9a bb a0 09 91 bd b9 75 3b bd
       -0.10128249 -0.004725851 -0.07081914 -0.045766566
000060 fb 9e ae bd 25 95 3e 3d 11 e2 01 3d d4 b1 5d bd
       -0.08526417 0.046528954 0.031709734 -0.05412467
000070 e8 8c 9d 3c ac f4 89 3b b9 05 2a bd 90 fb a0 bd
       0.019232228 0.0042100754 -0.041509364 -0.07860482
000080 a7 84 b9 3d 94 8e 27 3d b2 cf 8e 3d 3c 00 8c 3d
       0.090585046 0.040907457 0.069732085 0.06835982
000090 12 c2 30 bd a1 c7 ca 3d 55 76 7b bd 1a a3 17 3e
       -0.04315383 0.099013574 -0.061392147 0.14808312
0000a0 4c b2 f0 3d e3 84 01 3e 87 ca 88 3d fe e2 e4 3d
       0.117527574 0.12648349 0.06679254 0.11176108
0000b0 5a 3c 28 bd b7 a0 1e 3e 89 4e e8 bd 00 1b db bb
       -0.04107318 0.15490995 -0.113431044 -0.0066865683
0000c0 5f 92 01 3e a5 ab 67 3d 0b e8 ef 3d fd 76 c1 bd
       0.12653492 0.056560177 0.117141806 -0.09446523
0000d0 75 84 9f bd 5d 22 49 3d 01 65 8e bc 4e c7 8c 3d
       -0.07788936 0.049105037 -0.017382147 0.06873952
0000e0 08 9e b7 bd 41 74 92 bd 24 55 a2 bd ae 8e b3 3d
       -0.08965689 -0.0715108 -0.079263955 0.08767448
0000f0 65 a0 82 bd d0 5d 06 bc a9 0a 13 3c d6 c4 8c bd
       -0.06378249 -0.008201078 0.00897471 -0.06873481
000100 a3 4e 90 bd b4 6c f0 bc 58 66 b6 bd 69 32 6a 3b
       -0.07046249 -0.029348709 -0.08906239 0.0035735613
000110 f9 8f 94 bd 2f 04 f0 bd 8a ba 36 bc 84 2b 4f 3d
       -0.07254023 -0.11719548 -0.011152873 0.05057861
000120 9a 83 c7 bc 0f 7d 82 bc af e6 82 3d 92 01 96 bd
       -0.024354745 -0.015928773 0.06391656 -0.07324518
000130 18 5c 06 3e 26 f1 07 3e 8f 0f 18 3e ab 5b 33 bd
       0.13121068 0.13275585 0.14849685 -0.043788593
000140 9f 18 a6 bd 86 f2 3a 3e 3d f2 d2 bc 6e b7 88 bd
       -0.08110165 0.18256578 -0.025750274 -0.066756114
000150 26 4b 1e bc b9 b9 c8 bd 1b c4 a8 3d df 6a 31 bd
       -0.0096614715 -0.09801049 0.08240529 -0.04331481
000160 4e 70 6b bd de 39 cc bb 66 d6 14 bd bb 61 0d 3e
       -0.05748015 -0.0062324842 -0.03633728 0.13806812
000170 30 4e 79 bd 1d 2e 9c bc 25 fa 4c bd 9d ba b6 bc
       -0.06086558 -0.019064957 -0.050043244 -0.022305781
000180 d1 77 bd bd b5 66 96 3d da c8 54 bc 48 c2 9a bc
       -0.09251369 0.073438086 -0.01298734 -0.018891469
000190 f6 e9 81 bb 0b 5e ff ba 10 84 ad bc fc a0 b8 3d
       -0.003964658 -0.0019482983 -0.021181136 0.0901508
0001a0 b3 a2 51 bd 9f 62 e6 bd ba 4e 81 bc 94 50 13 3e
       -0.051180553 -0.11249279 -0.01578461 0.14386207
0001b0 8e b2 2e bd 95 28 ed 3d 17 18 6c bd f8 b7 e4 bd
       -0.04265075 0.11580006 -0.05764016 -0.11167902
0001c0 49 3b 37 ba ab 9d b0 3d c9 48 a7 bd 41 82 5d bc
       -0.000698973 0.08623823 -0.081681795 -0.0135198245
0001d0 0f 68 8c bd 38 b8 c7 3d ef 77 4f bd 03 07 33 3b
       -0.06855785 0.09751934 -0.050651487 0.0027317412
0001e0 ce a1 cb bd 58 44 5a bc c7 e1 75 bd 44 2b 95 bc
       -0.09942971 -0.0133219585 -0.06002977 -0.018209107
0001f0 fd 75 f0 3d c9 d4 f2 3d 23 49 03 be 11 86 0f bc
       0.117412545 0.11856992 -0.12820868 -0.008759991

linear.weight f4 [10, 2560]
000000 a6 65 91 3b 3d e5 cc 3b 73 e2 51 bb e3 22 b6 3b
       0.0044371663 0.0062529133 -0.0032025843 0.005558358
000010 d2 7e 94 3b 78 f1 a0 38 b2 b3 c3 bb ca 03 6a bb
       0.0045317197 7.6743716e-05 -0.005972349 -0.0035707825
000020 7e ed 6c bc 35 60 0d 3c 27 7b 9f 3a a9 9e a6 bb
       -0.014460919 0.008628895 0.001216744 -0.0050848317
000030 2a 98 89 bc 53 6c 1e bc d7 30 0b bb 82 c4 76 ba
       -0.01679619 -0.009669381 -0.0021238828 -0.0009413437
000040 ed 67 a7 bc 2a d1 6a 3c c0 62 46 3c be 97 91 3c
       -0.020435298 0.014332095 0.012108505 0.017772552
000050 1a d5 28 3c d1 8a 69 bc 73 bc 5d 3c 13 8f 31 3c
       0.010304714 -0.014254288 0.013533699 0.010837334
000060 aa 3a 64 3c de 6f 3a bb b5 31 67 bc 76 2d 15 bc
       0.013930002 -0.0028448026 -0.014110972 -0.009105077
000070 a1 3b 1d 3b f3 52 b3 bc 11 7a b4 bb 2c d8 35 3c
       0.002399184 -0.02189014 -0.0055077155 0.011098903
000080 46 a9 12 3c 83 f9 2d bc 1a 7a 90 bc cf 67 be 3a
       0.008951491 -0.01061857 -0.017636348 0.0014526787
000090 9a df f6 3b 45 8c 9b 3b 12 e2 33 3b 80 13 cc ba
       0.0075339796 0.004746946 0.002744798 -0.0015569776
0000a0 4a f1 b0 ba 70 58 bd bc 9f 5a 58 3c e2 6c 76 ba
       -0.0013499644 -0.02311346 0.0132051995 -0.000940038
0000b0 44 0f a4 3c 8c 7b 3f bc de 48 b4 bb a5 25 4e bc
       0.02002681 -0.011687171 -0.0055018505 -0.012582217
0000c0 71 49 5e 3c 1d 15 6c bc 4f f8 87 bc 10 8d 04 b9
       0.0135673145 -0.014409331 -0.016597895 -0.00012641051
0000d0 46 3d 5e bc 7f 0b a0 3b f5 e4 e6 bc c7 7e f0 bc
       -0.013564413 0.004884183 -0.028185347 -0.029357327
0000e0 55 af bc bb b9 90 99 bc 72 28 b3 bb 3f 39 3a bb
       -0.005758206 -0.018745767 -0.005467468 -0.002841547
0000f0 7d 66 9f bd 11 d7 be 3a f0 c4 c8 bc 27 2b c8 3b
       -0.0778322 0.0014559944 -0.02450797 0.00610866
000100 07 7b 8b bb 95 3e cf 3a 88 af ed 3b b5 aa 4e bc
       -0.0042566094 0.0015811498 0.007253591 -0.012613942
000110 b3 eb 50 bc 59 a4 21 3c 06 77 81 bc d3 05 99 3c
       -0.012751508 0.009865844 -0.015803825 0.018679535
000120 21 bb a4 bb a6 9f 94 bc 37 9f ea 38 34 8f 00 bc
       -0.0050271903 -0.018142533 0.000111876456 -0.007846642
000130 62 ac 05 bb 3b 66 30 bc ba 1a 45 3b ad e6 3b 3c
       -0.0020396938 -0.010766561 0.0030075745 0.011468572
000140 4f 40 9f b8 e9 7b 05 bc 6f 32 c8 3b bd 3f b0 3c
       -7.593689e-05 -0.008147218 0.006109528 0.021514768
000150 fb 55 90 3c 7b a9 0d bc 9b 18 33 3c 8a dd 90 3b
       0.017619124 -0.008646364 0.010931159 0.0044209408
000160 af b0 50 ba 99 88 1d bd 19 60 cf bc 0e 11 2e bb
       -0.0007960898 -0.038460348 -0.025314378 -0.0026560458
000170 09 e0 90 bb 7c ed 00 bd ad 90 01 bc c0 d3 8c bb
       -0.0044212383 -0.031476483 -0.007908029 -0.0042977035
000180 6a 4b 8d bc 16 4f cc bc 21 43 07 bc 75 62 9c b8
       -0.017247874 -0.024940055 -0.008255751 -7.456999e-05
000190 e7 fb 26 3c a8 df f5 3b f7 60 c6 bb 28 c3 26 bc
       0.010191894 0.0075034685 -0.0060540396 -0.010178365
0001a0 84 74 ec ba 52 7b 3e bb d0 06 77 3c 2a 39 f8 3b
       -0.0018040095 -0.0029065204 0.015077308 0.007575174
0001b0 48 95 40 3a 3d 8e 80 3c 1c 35 d1 bb 5e 02 15 bc
       0.00073464634 0.015692824 -0.006384505 -0.009094803
0001c0 ce dc a4 bb 5e c0 de bb 34 65 e8 bb c6 f5 ae bc
       -0.005031205 -0.0067978343 -0.0070921425 -0.021357428
0001d0 59 50 e0 bb a7 04 92 3b 67 b6 61 3b 5c 7b 55 3c
       -0.0068455157 0.004456121 0.0034440996 0.013029899
0001e0 c7 6e c8 bb db ed 6b 3c a4 7a 9b ba 95 2d 80 3c
       -0.0061167213 0.014399971 -0.0011862111 0.015646735
0001f0 74 c3 56 bc d4 b0 d3 bc ca ca 9e bb 46 46 f2 bb
       -0.013108123 -0.025841154 -0.0048459517 -0.007393631
000200 09 e1 90 3d 92 fb 14 3d d6 18 ff 3c d1 a3 78 3d
       0.07074172 0.03637273 0.031139772 0.060703102
000210 6d 75 13 3d ba 0b e1 3c c0 6b 4b 3d 66 36 52 3c
       0.036000658 0.027471412 0.049663305 0.012830352
000220 bd f4 ef 3c a2 93 cc bc c7 e4 d7 bc 87 df 53 bc
       0.029291505 -0.02497274 -0.026354207 -0.012931711
000230 3f 8f 6b bb 8e f5 91 bc 12 f3 3f 3b 47 44 b4 3c
       -0.0035943536 -0.017817285 0.0029289168 0.022005213
000240 c7 57 5c bb cb 5a 4e 3c c0 dc 50 bb 7c f6 7d 3c
       -0.0033621655 0.012594889 -0.0031869859 0.015500661
000250 7c 71 1c bc 4f 37 8e ba 94 7e 98 3b a7 e3 20 3b
       -0.009548541 -0.0010850223 0.004653761 0.0024549754
000260 ad 5c 1a 3b 85 6c a9 3a cb 14 19 bc 60 11 b1 bc
       0.0023553774 0.0012926018 -0.009343336 -0.02161473
000270 1a 56 90 3b eb eb cb bc 31 b8 cd bc d4 7e 7c 3c
       0.0044047954 -0.024892768 -0.025112243 0.015411098
000280 06 ce 09 bb 86 17 ae bd 63 2c dc bd 2f 76 27 bd
       -0.002102734 -0.085005805 -0.107506536 -0.040884193
000290 55 18 fd 3c 65 0b d3 bc 54 ff 63 bc 24 1f 6d bd
       0.030895391 -0.02576227 -0.013915855 -0.057891026
0002a0 c8 fe 18 3d 39 a6 79 3d 99 a8 2c 3d cb 52 3f 3d
       0.037352353 0.060949538 0.042152975 0.046709817
0002b0 fc e2 1b 3d c3 96 5b 3d b5 cf df 3c 89 e1 15 3d
       0.038058266 0.053610574 0.027320722 0.03659204
0002c0 93 79 8a 3c 1e 9a 48 3d 1a ca fc 3c 1b 6e 55 3d
       0.016903674 0.048975103 0.030858088 0.052106958
0002d0 5a 6b fc 3b f8 4d ce bc 53 5e c6 bc 29 8d 16 bd
       0.007703227 -0.025183663 -0.0242149 -0.036755715
0002e0 6f ce bc 3c 8f 81 57 b9 d5 a7 20 bc 6d ba 1f 3c
       0.023047654 -0.00020552262 -0.009805639 0.009749037
0002f0 d7 4d 3b 3c 51 ad a4 3c 7a 0f 80 ba 7a ad 32 bc
       0.011432133 0.020102175 -0.0009770237 -0.010905618
000300 ff 5a 30 bc e5 de 49 bc b7 9c 5b bc c7 25 c9 3b
       -0.010763883 -0.012321209 -0.013404063 0.0061385366
000310 0b f3 48 3c 78 31 4f bc 1d f9 f8 bb 5c e4 ed bc
       0.012264977 -0.012646072 -0.007598056 -0.029039554
000320 c9 1a 9d 3c d0 b9 22 bb 79 1b 89 3c ba 52 df 3c
       0.019177811 -0.002482999 0.016736733 0.027261127
000330 9a 9a 89 3c 3e e8 1c 3b 03 ba 98 bb 5e e9 96 bc
       0.016797353 0.0023942138 -0.004660846 -0.018421825
000340 7d 0e 31 3c d9 f7 e5 bc 4a 5d ad 3a c7 e9 19 b8
       0.010806677 -0.028072285 0.0013226655 -3.6695765e-05
000350 dd be 14 bc ca 55 66 bc bb a9 06 bc 5e e6 f5 ba
       -0.0090787085 -0.01405854 -0.008219178 -0.0018760671
000360 4d c0 b2 3b 9f 82 40 bc 7c be 07 bb 51 65 3d 3c
       0.005455053 -0.0117498925 -0.0020712903 0.0115598
000370 41 04 e3 bd 13 25 a6 bc c3 0e a2 bc f0 e7 26 bc
       -0.11084796 -0.02028135 -0.01978243 -0.010187134
000380 be c0 a6 3b c3 60 d5 bb 5f 4c 69 3c 57 ee 39 bb
       0.0050888946 -0.006511779 0.0142394 -0.0028370821
000390 91 c1 cc bc 6a e5 af bc 31 cd a0 bc d4 74 cb bc
       -0.024994643 -0.021471698 -0.019629093 -0.024835981
0003a0 b9 fe d9 bc c4 1b d2 3b 78 a8 9a 3a b8 89 cd bc
       -0.026610719 0.0064120013 0.0011799475 -0.025090083
0003b0 03 3c 80 bc 3d b4 b8 ba 22 b5 19 bd ba e6 9f bc
       -0.015653616 -0.0014091801 -0.037526257 -0.019519199
0003c0 c4 24 11 3c 96 dc 66 bc 7a ad b7 bc 56 db f8 bc
       0.008858863 -0.014090678 -0.022421587 -0.030378025
0003d0 6f 10 91 ba 31 c6 89 3a 58 fb 85 bc 1b 10 a0 bc
       -0.001106752 0.0010511336 -0.016355202 -0.01953893
0003e0 dd 21 48 bb 35 39 e3 3c cb a5 db 3b 35 df 03 3d
       -0.0030537762 0.02773724 0.0067031137 0.03219529
0003f0 17 7f c4 bb 11 49 16 bc d6 38 66 bc 8f 80 a6 ba
       -0.0059965956 -0.009172694 -0.014051637 -0.0012703108

linear.bias f4 [10]
000000 e7 8c d9 3b 53 1e 20 bc bf bb d4 3c 4e 08 84 bc
       0.0066391113 -0.009772855 0.02596843 -0.016117241
000010 64 04 4e bd 82 e0 7f bc e3 da 88 bc eb f1 37 bc
       -0.050297156 -0.015617492 -0.016705936 -0.011227111
000020 2a a7 6a 3d 58 03 ef bc
       0.057288326 -0.0291764
