cnn.pth (torch, 494528 bytes, 10 tensors)

conv1.0.weight f4 [16, 1, 3, 3]
000000 9b c3 7e 3e f8 ad 87 3e b6 26 7d 3e d3 f7 87 3e
       0.24879305 0.26499915 0.24721798 0.26556262
000010 ad da 7a 3e 3b d4 a1 bd 96 16 f3 3d 54 eb 1a 3e
       0.2449748 -0.07901808 0.11869542 0.15128833
000020 7c b0 a8 3e 93 36 1b bd 4f 96 8c be 76 e8 7a 3e
       0.32947147 -0.037893843 -0.27458426 0.2450274
000030 5f 98 0d bd db be c3 bd 29 60 b9 be 11 c1 3d 3e
       -0.03456914 -0.09557887 -0.36206177 0.1853068
000040 fa 4c 29 3e 8c 26 7d be b6 b0 c9 3d 73 34 ae 3d
       0.1653327 -0.24721736 0.09848158 0.08506098
000050 ee e3 23 bd 21 cb ed bd 0a 04 cb be b6 f1 8e bd
       -0.040012293 -0.116110094 -0.3965152 -0.069796965
000060 d1 cb 0a 3c 52 8e 8d 3e de c1 35 3e a1 27 2a 3e
       0.008471445 0.27647644 0.17749736 0.1661668
000070 0b 43 a8 be 5c 69 ae be ca 46 ad 3d 02 40 4e be
       -0.3286365 -0.34064758 0.084607676 -0.20141605
000080 9f e3 61 3e 2d 40 27 be 01 9f 19 be 16 43 ab be
       0.22059487 -0.16333075 -0.15002061 -0.3344962
000090 9c 9d 9a be dd 59 13 be 27 bf 3f 3d 7a f9 00 be
       -0.3019837 -0.14389749 0.046813156 -0.12595168
0000a0 1f ca 6c 3d 05 c9 a4 3c 62 f3 f8 3d 4e 8f b8 3d
       0.057809945 0.020115385 0.121557966 0.09011708
0000b0 3b 53 a7 be 74 f5 d3 bc 18 b7 c7 bd bf 4a 08 3d
       -0.32680687 -0.025873877 -0.09751719 0.03327441
0000c0 3f 26 bf 3d 9f 57 a7 be ee a9 94 be 02 2f 1a 3e
       0.09333467 -0.32684037 -0.29035896 0.15056995
0000d0 74 ef 4f 3e 37 22 54 bd 2b 2e 3b be 7f 1e 1b bd
       0.20306188 -0.051790442 -0.1827933 -0.03787088
0000e0 ab be aa be ea ff fb bb 39 22 b4 3c 5c e7 c3 3d
       -0.33348593 -0.0076904194 0.021988975 0.09565613
0000f0 ce 35 8e be 21 9c 99 be 3a 03 5e be a0 61 65 be
       -0.27775425 -0.3000193 -0.21680918 -0.22400522
000100 c4 d8 09 3e 50 df 4c 3e fe 82 f2 3d ae d0 76 3e
       0.13461596 0.20007062 0.11841391 0.24103042
000110 4b cc b5 bd f1 f0 3e 3e c0 00 9f bd 4c bb 3c be
       -0.088768564 0.186466 -0.07763815 -0.18430823
000120 9c 16 48 be 28 19 2f 3c bd 62 a3 3e f4 03 90 bd
       -0.19539875 0.01068715 0.3191127 -0.07032004
000130 81 af b2 3b a4 4e 91 3e eb f9 21 3e c0 b7 16 3d
       0.0054530506 0.2838031 0.15817992 0.03679633
000140 31 0b 81 3e 4f 5e 33 3c 1c 83 6f 3e f9 59 10 be
       0.2520385 0.010947778 0.23389858 -0.14096822
000150 a6 e1 7c be dc 39 8d be 95 c3 9f be 65 23 5b be
       -0.24695453 -0.27583206 -0.31203905 -0.2140022
000160 ec c1 01 3d cc 27 2a be 3a e9 a7 be b1 c8 5d 3e
       0.03167908 -0.16616744 -0.32795125 0.21658589
000170 07 c5 09 be 06 4b 8b 3c 7e 46 b2 be 7f be 80 be
       -0.13454066 0.017003547 -0.34819406 -0.25145337
000180 d6 57 30 bc 0b 21 c8 bd 72 3b d7 3d ed 0b d4 bd
       -0.010763129 -0.097719274 0.10509385 -0.10353837
000190 0a ae 57 3e 26 29 30 3d d2 85 ad be ac 11 b8 be
       0.21062484 0.043007992 -0.3389116 -0.35950983
0001a0 08 9b 9f be fd a5 95 be 85 29 7b be 89 1f 02 bd
       -0.31172967 -0.29228202 -0.24527557 -0.031768356
0001b0 64 d8 94 3e a3 a5 9d 3d 58 d9 36 3e 71 88 2d bd
       0.29071343 0.07697608 0.17856348 -0.04236645
0001c0 52 88 67 3d ba 7a 35 3e bd e3 9f 3c f5 2f 6b be
       0.05652649 0.17722598 0.019517774 -0.22967513
0001d0 32 0c 18 3e 1e 52 53 3e de 34 99 be a0 7d ba be
       0.14848402 0.20636794 -0.29923147 -0.3642397
0001e0 10 2d 41 be e5 46 8f bd 43 a8 99 be 59 fe 2f be
       -0.18864846 -0.06995944 -0.30011186 -0.1718687
0001f0 4c 8e 3b 3e 8d 63 80 be 90 73 e8 bd 67 a9 83 be
       0.18316 -0.2507595 -0.11350167 -0.2571518
000200 92 80 cb 3d 54 7a 03 3d cc 4f af be 0c cd 68 be
       0.09936632 0.032099083 -0.34240568 -0.22734469
000210 6d 91 26 3e 2a 4b 33 bd c2 4a 1e 3d 1e 2b 58 be
       0.16266413 -0.043772854 0.038645513 -0.21110198
000220 63 88 54 3e f4 ab 91 bd 4a 66 16 be fd d2 a5 3d
       0.20755152 -0.071128756 -0.14687458 0.080968834
000230 22 79 6f be 6b 96 47 be 36 b5 04 be e2 52 b2 be
       -0.23386052 -0.19490974 -0.12959751 -0.3482886

conv1.0.bias f4 [16]
000000 54 e8 bd bd 93 8a 9a be 6b 2b ae be 5f f8 ab 3e
       -0.09272829 -0.3018385 -0.340175 0.3358793
000010 20 ee c3 3d 8b c9 0e be 21 52 87 bd 46 9f 92 be
       0.09566903 -0.1394407 -0.06607462 -0.2863714
000020 6d 9b 9b be 48 50 0d 3e 19 d6 32 bd 76 d6 4c be
       -0.30392018 0.13800156 -0.04366121 -0.20003685
000030 9f ad 26 be ae 45 6c bd 48 6c 14 be 75 57 8c be
       -0.16277169 -0.05768364 -0.14494431 -0.27410474

conv2.0.weight f4 [32, 16, 3, 3]
000000 66 23 3c 3d 72 ae ce bd 9c 9e 52 bd 75 25 8d bd
       0.045932196 -0.100918666 -0.051420793 -0.0689191
000010 83 48 8a bc d9 22 5e bd fa 64 8c bd 0b f5 d8 3c
       -0.01688028 -0.054232452 -0.06855197 0.026484033
000020 a4 3e 2b bd 21 a2 7a 3d 42 f9 b1 bc f9 fd ab bd
       -0.041807786 0.061189774 -0.0217253 -0.08398051
000030 ba e5 6d 3d c8 8c 2b bd ac 4c a4 3c 45 cd 36 bd
       0.058080412 -0.041882306 0.020056091 -0.044629354
000040 c2 74 83 3d 8c 0f 06 bd f6 66 af bd ec 34 83 bc
       0.06418754 -0.03272967 -0.0856456 -0.016016446
000050 03 7a 82 3d 1e 53 8c 3d 9d d4 72 3b b1 39 a5 bd
       0.06370928 0.06851791 0.0037052997 -0.080676444
000060 86 ec 21 bd be d0 31 3d 05 c3 d8 bc 5f 47 75 bd
       -0.039532207 0.043411963 -0.02646018 -0.059882518
000070 69 4f 5f bd 6d 20 63 bc 16 e5 5b bd 76 cb 43 3d
       -0.05451909 -0.013862711 -0.05368527 0.047801457
000080 62 23 76 bd 98 51 71 bc 1a a0 3d 3c 53 d9 1c bc
       -0.060092337 -0.014728926 0.011573816 -0.0095732985
000090 d5 83 58 bc 8a 2c 46 3d 81 bc 9a 3d 36 67 12 3d
       -0.013215025 0.04838232 0.075554855 0.03574296
0000a0 87 4c 3a 3d 01 c3 8a bd 0f 4a 5f 3d ee 20 80 bd
       0.04548314 -0.06775475 0.054513987 -0.06256281
0000b0 3f 82 3a 3d 65 81 35 bd 76 24 09 bd 73 74 87 bd
       0.04553437 -0.044312853 -0.033482037 -0.06614008
0000c0 dc 63 af 3c 60 7e 80 3d 78 52 82 3b 4c 90 94 bd
       0.021409921 0.06274104 0.003977116 -0.07254085
0000d0 39 c7 ba bd 17 a7 46 bd 46 00 73 bd 9d 41 76 bd
       -0.0912003 -0.048499193 -0.059326433 -0.060121167
0000e0 2f dd 59 bc 74 ed 9b bd 90 7a 03 3d 94 56 4e bd
       -0.013297363 -0.0761365 0.032099307 -0.050375536
0000f0 28 03 29 3d 0f 15 38 bd b7 f1 06 bd 0e d1 c4 bd
       0.041262776 -0.044941958 -0.03294536 -0.096101865
000100 7b 80 b1 bd 91 f8 8e bd 01 19 23 bc 38 57 fc 3c
       -0.08667084 -0.06981004 -0.009954692 0.030803308
000110 6e b5 80 3d cf 6a 71 3c 1c 9a 06 bb 34 af 09 bb
       0.06284605 0.014734938 -0.0020538634 -0.002100897
000120 64 69 29 bc c3 e4 41 3d 09 21 92 bb e8 fe 83 bd
       -0.0103400685 0.047337305 -0.0044595045 -0.06445104
000130 12 ba a2 3c 10 8c 61 3c 32 25 96 3c 29 fd b1 bd
       0.019864116 0.013766304 0.018328283 -0.086908646
000140 d8 8f 63 bd a4 08 b8 bd bd b3 c4 bd e9 78 a8 3a
       -0.055557102 -0.08986023 -0.09604595 0.0012853417
000150 1c ca ce bc 1f bc b8 bc 7e ef a2 bd 55 58 ee 3c
       -0.025242858 -0.02255064 -0.07955836 0.029094854
000160 b4 82 90 bd 2d 31 59 3b b7 0d 66 bd cc c2 27 bd
       -0.0705618 0.0033140883 -0.056165423 -0.040957257
000170 5b e9 41 bc ab 35 68 3d 79 20 3a bd be 87 c2 bc
       -0.011835421 0.056691807 -0.045441125 -0.023746368
000180 cd 76 92 3c c0 45 0e bd e2 e8 ef 3c 9b c7 94 3d
       0.017878914 -0.034734488 0.029285852 0.07264634
000190 04 08 8f bc f7 54 09 bd 8b 7f af bc d3 26 62 3d
       -0.017459877 -0.033528294 -0.021423122 0.055212807
0001a0 f7 44 ec 3c 2c 36 1a bd b7 4c 72 bc b6 1d 59 bc
       0.028841479 -0.03764932 -0.014788798 -0.013251713
0001b0 d9 9c f8 3c e1 55 64 3d b9 35 d8 3c 76 70 35 3d
       0.030348228 0.055745963 0.026392804 0.044296704
0001c0 ad d7 b3 bc 86 90 76 3d 33 39 3c 3d f9 c8 c6 3c
       -0.021953428 0.060196422 0.045952987 0.024265753
0001d0 0e 27 32 bd 9c 68 8e bd 56 24 48 3d 5c b9 41 3d
       -0.043494277 -0.069535464 0.048862778 0.047295913
0001e0 2f a4 24 3d 7b f4 b6 3c 72 d5 95 3c a5 92 4e 3d
       0.04019564 0.022333374 0.018290255 0.05043282
0001f0 c1 3b 85 bd 8f 7a 2f 3d 7d 07 bd 3a e0 55 56 bd
       -0.06505538 0.04284149 0.0014421787 -0.05232799
000200 cf fc e2 bc 58 1f 46 bb c4 3c 58 bd b7 e1 44 bd
       -0.02770844 -0.0030231085 -0.052792326 -0.04806682
000210 6c 89 46 3b a1 c9 23 bd 7f 13 a3 3c ac 0e 94 3c
       0.0030294312 -0.03998721 0.019906757 0.018073402
000220 02 55 8e bd b2 84 b0 bb d4 c9 70 3d 5a 2b 7b 3d
       -0.06949808 -0.0053869123 0.05878623 0.06132064
000230 8c fe db 3c 12 db 19 bc c2 40 0b 3d 45 15 4a 3d
       0.026854776 -0.009390609 0.033997305 0.04933669
000240 81 32 11 bd 17 9b a8 bd 7a 27 40 3d c7 e3 c0 3d
       -0.035448555 -0.08232706 0.046912648 0.09418445
000250 37 23 18 bd 27 59 67 3d ef 24 d5 3d ed a6 d2 3d
       -0.03714296 0.056481507 0.10407435 0.10285745
000260 af 8e c4 3c 80 af 86 3c c0 ce 25 3d ba e1 91 3d
       0.023993818 0.016441107 0.040480375 0.07123132
000270 d2 3a 4c bc d5 20 97 3d 78 cc 91 bd d0 ca 33 3a
       -0.012465196 0.07379309 -0.071190774 0.00068585295
000280 d0 ff c5 3c 10 ac 50 bd 02 39 83 3d aa 3e 8c bd
       0.024169832 -0.05094534 0.06407358 -0.0684789
000290 1d dd 2c 3c 77 20 fa 3b 33 48 84 3d ee 83 67 3b
       0.010550764 0.0076332646 0.064590834 0.003532644
0002a0 0d 94 8a 3d c6 f0 8e 3c 35 6c 8a bd 25 30 7c 3d
       0.0676652 0.017448794 -0.0675892 0.06156935
0002b0 34 35 8f bd ff ea 36 bd fd 1b 31 3d 38 2a fb 3c
       -0.069925696 -0.044657703 0.043239582 0.03065978
0002c0 de 63 86 3d 26 4e 84 3d 8d f9 8a 3c 6c f3 ab bd
       0.06562017 0.06460218 0.016964698 -0.083960384
0002d0 62 1d 26 3d 06 80 5d 3d d9 8e f4 3c df 71 ff bc
       0.040555365 0.05407717 0.029853271 -0.031182228
0002e0 20 9f 4f 3d 1e e7 ef 3c 1f 7f af bd a6 ed 91 3d
       0.050688863 0.02928501 -0.08569168 0.07125406
0002f0 3d a4 7a 3c 7c 72 95 3d 31 4c 89 3b 5c 68 53 bb
       0.0152979465 0.07297227 0.004189991 -0.0032258248
000300 1f eb 50 3d 83 eb b8 3d 37 af 94 3b b8 c1 6d 3d
       0.05100548 0.09029295 0.004537489 0.058046073
000310 b1 f8 c1 3d de d7 b0 bd e3 08 d0 3d f3 13 af bd
       0.09471262 -0.086349234 0.10157945 -0.08548727
000320 8b a0 40 3d 1e ec c3 bc c7 90 1e bc 3a 17 80 3d
       0.047028106 -0.0239163 -0.009678072 0.0625443
000330 dc 00 2d 3d df a9 98 bd 31 ae 5c bd 71 55 42 bd
       0.042237148 -0.07454275 -0.05387706 -0.047444765
000340 c3 a6 31 bd af bd 8e bd 41 d2 b5 bc 28 79 d4 3c
       -0.043371927 -0.06969773 -0.022194983 0.025936678
000350 d6 62 37 3c 82 2b 6d bd 49 8c b9 bc e3 06 8a 3c
       0.011192998 -0.05790282 -0.022649901 0.016848987
000360 83 b5 73 bd 24 ae c3 b9 f9 e0 cb bc a3 24 6d bd
       -0.059499275 -0.00037323043 -0.024887549 -0.057896268
000370 3e fe 39 3d 6c f5 fa bc 54 2d 4f 3d ac 9f cb bc
       0.04540848 -0.030634604 0.050580338 -0.02485641
000380 16 66 c2 bd e9 01 9d bb 0a 79 6c bd 76 21 a3 bd
       -0.094921276 -0.0047914875 -0.05773262 -0.079653665
000390 43 65 8c 3c bf 8b 42 bd f4 2f d3 3d 0a 2c 03 ba
       0.01713813 -0.047496554 0.10311881 -0.0005003816
0003a0 86 f1 ef bd 7b 11 7c bd 0c 62 c6 3d ac be bc 3d
       -0.11715989 -0.06154011 0.0968667 0.09216055
0003b0 0a c9 34 bc 31 fe 26 3d 86 36 77 bc c3 4b 95 ba
       -0.01103426 0.04076976 -0.015088683 -0.0011390377
0003c0 fc 38 ac bc 85 2c df 3b 35 06 3b bd 80 b2 0f 3d
       -0.021023266 0.006810727 -0.045660216 0.03508234
0003d0 fe 56 24 bd 8f 10 c3 bd 0f 24 e5 3d a1 a9 95 bc
       -0.040122025 -0.09524643 0.11188518 -0.018269362
0003e0 1e 82 11 bd 12 ef 72 3d fc da 75 3c 64 6f a0 bc
       -0.03552448 0.059310026 0.015005823 -0.019584365
0003f0 fd 3b 09 be c7 63 8d bd 87 b6 14 be 78 d8 69 3c
       -0.1340179 -0.06903797 -0.14522754 0.014272802

conv2.0.bias f4 [32]
000000 a1 3a cf bc 0f 98 01 be 45 b8 92 bc 9d b7 b0 bd
       -0.025296511 -0.12655662 -0.017910132 -0.086287715
000010 81 03 d8 3d 0c b4 e3 bd 47 58 86 3d 4b 8b 80 bd
       0.10547543 -0.111183256 0.06559806 -0.06276568
000020 24 af 6c bd 3b 34 2d bd cb af 3f 3e 81 3e 44 3d
       -0.057784215 -0.04228614 0.18719403 0.04791117
000030 b7 ed 8e 3d 13 8e e0 3a 98 34 bf bc 8a 12 48 bd
       0.06978934 0.0017132185 -0.023340508 -0.048845805
000040 2c 1b 83 3c c4 f8 f7 bc c3 9f 1e be ad 46 8e bd
       0.016004167 -0.030269988 -0.15490632 -0.06947074
000050 55 59 dd bc 1f 06 b2 3d 05 b7 f7 bc 70 27 0e bd
       -0.027020136 0.08692574 -0.030238638 -0.03470558
000060 37 49 97 3d 96 1f b7 bd c6 9b 13 bd 5d 8f da b9
       0.073870115 -0.089415714 -0.03603723 -0.00041687014
000070 1e 2a 1d 3e 74 98 f2 3d f0 0a e7 3d 7c e4 84 3c
       0.15348098 0.118454844 0.11281383 0.016222231

conv3.0.weight f4 [64, 32, 3, 3]
000000 db 59 e4 bc 5f 8d 4e 3d 91 46 e3 ba 48 d1 47 bc
       -0.027874878 0.05042779 -0.0017339756 -0.012195893
000010 8c 45 4b 3d 6b c0 bd 3c b0 87 54 3b 51 f8 6b bc
       0.049626872 0.023163041 0.003242951 -0.014402465
000020 76 55 3b bd 67 22 a9 3d 28 d7 ad 3d 31 74 5c 3d
       -0.0457358 0.08258515 0.084883034 0.053821746
000030 9d e5 ca 3c 24 9e c5 bc 72 87 bd 3b ca 03 f7 3c
       0.024767691 -0.024123259 0.0057839686 0.030153174
000040 31 20 e2 bc d0 d2 12 bd f2 03 30 3b fd 74 0b bd
       -0.02760324 -0.035845578 0.002685782 -0.034047116
000050 9d 3e 92 bc c1 1c 13 bd 47 86 af bc 0a 54 60 bd
       -0.017852122 -0.035916094 -0.021426333 -0.054767646
000060 05 d9 ce bc 47 8a c1 3c c7 9b aa bc 7c 2a f1 bc
       -0.025249967 0.023625506 -0.020826234 -0.029439203
000070 c4 34 11 3d a6 1c e6 3c 8e eb 18 3d da d0 e5 3c
       0.03545071 0.028089833 0.037334017 0.02805369
000080 4b 96 85 bd 3c 56 26 bd 1d 31 86 bd 6d a4 c6 3c
       -0.06522807 -0.040609583 -0.06552336 0.024248326
000090 78 42 05 bc 3b 7e 67 bd 5d 2c 76 3c 98 80 c7 3b
       -0.008133523 -0.056516867 0.0150252255 0.0060883276
0000a0 2f 55 23 3d d8 3b 7f bd 19 b4 e4 bc 20 ad 8d bd
       0.03987616 -0.06231293 -0.027917909 -0.069177866
0000b0 97 7e 57 3c 31 70 5b bd cf 99 53 3d 49 f4 1d 3b
       0.01315274 -0.05357379 0.051660355 0.0024101904
0000c0 4b 2a 8a bb 62 de a0 3d 0e 71 5c 3c 34 7f 35 bc
       -0.0042164675 0.07854916 0.013454689 -0.011077691
0000d0 c4 b2 05 bd 72 71 60 bd e6 3e 00 bd 86 19 4d bd
       -0.032641187 -0.05479569 -0.031309985 -0.05007317
0000e0 61 d0 74 bc 23 93 89 3c 56 dc 3a 3d e9 d7 32 bc
       -0.0149422595 0.016793793 0.045620285 -0.010915735
0000f0 c5 9b d9 bb d5 17 04 bd 4d 0f 58 3d 9d 08 f2 3c
       -0.0066408836 -0.03224929 0.052748967 0.029545123
000100 57 d4 8b 3c 31 38 0e 3d 29 83 f2 3c de 0c 46 3d
       0.017069025 0.034721557 0.029603558 0.048352115
000110 f3 80 c9 3c 5e a4 44 3b 37 c0 ab bb 1a 88 1d 3d
       0.02459762 0.0030005197 -0.0052414197 0.038459875
000120 3b 69 e4 bc 3e 42 dc bc a4 08 46 bd cb c4 d6 3c
       -0.027882209 -0.026887055 -0.048348084 0.026216885
000130 7d c5 df bc a2 43 9b bd 0f 15 32 bd ef 95 14 bb
       -0.02731585 -0.07581259 -0.043477114 -0.0022672375
000140 43 26 8a 3b a6 c2 70 3d c6 1a 2a bb ac f6 96 bd
       0.004215987 0.05877938 -0.00259559 -0.07371268
000150 be a5 a8 3d 39 70 88 3d a9 38 4c 3c e9 25 41 bd
       0.08234738 0.0666203 0.012464681 -0.047155295
000160 da 2e d6 ba 53 ad e8 3c 49 18 33 bb 55 93 3b 3c
       -0.0016340867 0.02840296 -0.0027327708 0.011448701
000170 a0 32 d9 bc a9 d1 9d bb 67 fe 8e 3c e4 4d ab bd
       -0.026513398 -0.004816253 0.017455293 -0.08364466
000180 d3 b8 74 bd 0f c2 a1 bd 43 fc 89 bd d7 b8 8e 3d
       -0.059746575 -0.07898342 -0.06737568 0.06968849
000190 ea df 4a 3d 40 59 d2 3c af b2 65 bc 6d 0b 62 3c
       0.049529947 0.025677323 -0.014019652 0.013796669
0001a0 1d 8a 9a bc 6f 48 0e 3d 17 d7 b9 3c 96 00 c9 bb
       -0.018864686 0.034737047 0.02268557 -0.006134103
0001b0 71 f3 56 3d 97 e2 ec bc 72 d4 61 bd 71 be 4f bd
       0.052478258 -0.02891664 -0.055134244 -0.05071873
0001c0 99 30 69 3d c8 73 e0 bc d5 b2 27 3c 7f 6b fd 3c
       0.056931112 -0.027398959 0.010235508 0.030935047
0001d0 92 9e b7 bc 77 2e 93 bc fa da 6c bb c8 13 ca bc
       -0.02241448 -0.017966492 -0.0036141262 -0.024667636
0001e0 22 8c 1b bc 0d 22 9f bc 4a 89 95 bd f7 32 d5 3c
       -0.0094938595 -0.019425416 -0.073015764 0.026025278
0001f0 03 5f 71 bd 6a 72 5a bd 13 2d d5 bc 58 5f aa 3c
       -0.0589285 -0.05333177 -0.02602247 0.020797417
000200 79 eb e6 bc 36 f3 2d 3d 43 ef 5f 3d d3 6b 86 3d
       -0.028188454 0.042468272 0.054671537 0.065635346
000210 33 0b df 3c 82 f9 9d 3c 9c 6d 3c 3d de e2 2c 3d
       0.02722702 0.019284014 0.04600297 0.042208545
000220 f2 29 7b bd 18 5d 4a bc 1a 24 56 3d 32 37 ff 3c
       -0.0613193 -0.012351297 0.052280523 0.031154249
000230 7e 85 ce bc 12 76 ce 3c 37 8a 92 bd 6d be 18 bd
       -0.025210138 0.025202785 -0.07155269 -0.03729098
000240 c6 37 17 bc 88 2e 94 3d 2d 4f 0b 3d 78 25 c2 3d
       -0.009229606 0.07235438 0.034011055 0.09479803
000250 66 e5 c2 3d 97 a4 74 3c de 89 64 bd f3 4d 37 bd
       0.095164105 0.014931819 -0.055795543 -0.044752073
000260 94 bf 49 3d 81 f8 85 3d f6 7b 58 3d ee 4d 91 3c
       0.04925497 0.06541539 0.052852593 0.017737355
000270 b2 33 01 3d 04 84 75 3c 5c db 72 3d 9e 51 cc 3c
       0.03154344 0.014985088 0.05929123 0.024941262
000280 16 84 9b 3c e2 88 67 bd 31 3a 13 3d 72 66 90 3d
       0.018983882 -0.056527026 0.035944168 0.0705079
000290 e1 8a 8b 3d d4 f1 7b bd c6 ba 0a bd d6 55 90 3c
       0.068135984 -0.061509922 -0.033869527 0.017619055
0002a0 37 de 2a bc fb 48 9b 3c ca 21 d3 3c ad 2c c4 3c
       -0.010428957 0.018955698 0.025772948 0.023947084
0002b0 99 a6 fe 3c f6 97 3d 3d 52 64 9c bd 14 3f f4 3c
       0.0310853 0.0462875 -0.07636322 0.029815234
0002c0 1b 85 1a 3a c4 c4 32 bd 2c 00 e2 bc ed ca c3 3c
       0.0005894468 -0.04364468 -0.027587973 0.023900473
0002d0 22 4e 19 3b 6b e7 3f 3d 65 94 86 bd 80 3c dc bc
       0.0023392518 0.046851557 -0.06571273 -0.026884317
0002e0 82 15 3e 3d fe b1 80 ba f7 bc 2e bd 87 fa 42 bc
       0.04640723 -0.0009818671 -0.04266068 -0.011900551
0002f0 0f db 38 bd a2 dd 1d 3c 1f e1 9c 3c f6 f3 48 3d
       -0.045130786 0.009635361 0.019150315 0.049060784
000300 bd 00 6a bc 9a 9d 24 bd 7f 43 9d bb 59 ae 51 bd
       -0.014282403 -0.040189363 -0.004799306 -0.05119166
000310 07 a7 36 bc 00 91 38 bd 01 85 88 3d e5 8c 27 3d
       -0.011148221 -0.045060158 0.066659935 0.040905852
000320 a5 5a 20 bd 5a fe f5 bc c8 45 4c 3d 72 ed 29 ba
       -0.039148945 -0.03002851 0.049871236 -0.00064822205
000330 9d 6b 5f 3c a3 61 3a bb 3c db 4e bd 00 b6 87 3d
       0.013636497 -0.0028439544 -0.050502047 0.066265106
000340 30 d6 67 bd d0 06 ef 3b 3f e7 2e ba 06 54 83 3c
       -0.05660075 0.0072945133 -0.00066720316 0.016031276
000350 62 66 dc 3c 79 4d 44 3c 7d ca fa 3b ef fc 8b 3c
       0.026904289 0.011981362 0.007653533 0.017088382
000360 78 21 5f 3d 68 2f ab 3c 4c 11 b4 3c b7 5a b7 bd
       0.054475278 0.020896628 0.021980904 -0.08952849
000370 15 88 39 3c 84 fc 0b bd 56 57 73 bd 3f 0d da 3c
       0.011323948 -0.034176365 -0.059409462 0.026617644
000380 6a 09 4f bd b4 45 8a bd 40 2b eb 3a bd 87 02 3d
       -0.050546087 -0.06751576 0.0017941967 0.03186773
000390 57 7d 85 bd 60 4b 86 bd 6f 5d f2 bc cb e2 0f 3a
       -0.06518047 -0.065573454 -0.029585568 0.0005488812
0003a0 70 fa a0 bc eb 9a 49 bd 1c 3d 79 3c 25 dd 46 3b
       -0.019650668 -0.049220007 0.0152123235 0.0030344215
0003b0 9a cb 89 3d da f2 00 bd 3c 62 80 3c 8e 9a 69 3c
       0.06728287 -0.0314816 0.015671842 0.01425804
0003c0 00 9d 1c bd 7a 68 8c bc fa 41 60 bd 79 8b 44 3d
       -0.038235664 -0.017139662 -0.05475042 0.047984574
0003d0 d3 d5 23 bd f2 05 a7 3c 9b bf a3 3d 8e 08 b2 3d
       -0.03999884 0.020388577 0.0799553 0.08693038
0003e0 65 b5 8c 3d 5f 0d fe 3c 74 1c b7 bc ba 85 b2 bc
       0.06870536 0.031012235 -0.022352435 -0.021792281
0003f0 87 91 26 3d 21 e2 4d bd 48 b1 3b bd 4d 5a 62 3c
       0.04066613 -0.05026448 -0.045823365 0.013815475

conv3.0.bias f4 [64]
000000 3d ef 83 bc 5c ff c0 bb 77 61 6d bc 83 78 9e 3d
       -0.016105289 -0.005889816 -0.014488569 0.077378295
000010 9a 19 f1 bc b9 4c 8b 3d 30 6e 81 bc 1a ad 2f 3d
       -0.029431153 0.06801743 -0.015799612 0.042889692
000020 d7 c2 af 3c 34 46 dd ba ac 30 cc bd f6 76 a9 bd
       0.021455212 -0.0016881884 -0.09970221 -0.08274643
000030 53 c2 41 bd 8b ca 87 bd fa 6e 37 bd 82 9e ba bb
       -0.047304463 -0.06630429 -0.04478357 -0.005695165
000040 ba b4 99 3d cc 96 5b bd 77 12 79 3d 63 d4 15 3d
       0.07505174 -0.053610608 0.060808625 0.0365795
000050 86 e9 ee 3d 0f ec 3c bd 70 b5 43 bc c6 fa b2 3c
       0.11665635 -0.04612356 -0.011945114 0.021848094
000060 08 89 3b bd 63 36 57 bd 93 b6 a6 bb 3a bc 84 bc
       -0.04578498 -0.0525421 -0.0050876825 -0.016203035
000070 30 24 ec 3b 7c de 9d bd 4f b7 24 bc e0 4a 5e bc
       0.0072064623 -0.07708451 -0.01005347 -0.013567656
000080 84 d3 08 39 17 d5 9b bc 39 92 56 bd 3b a7 bb bc
       0.00013048766 -0.019022508 -0.052385543 -0.02290689
000090 90 91 e3 3c b8 ed 57 3d d4 4e 20 bd 93 fc 94 3c
       0.02777937 0.05271694 -0.039137676 0.018186843
0000a0 60 a8 10 bb b3 f7 00 be 8e e8 92 3d 0e 5c 6c 3c
       -0.0022073016 -0.1259449 0.071732625 0.014426244
0000b0 61 67 0a 3d 1b b8 6f bd 9f 0f 22 bd 55 84 38 bc
       0.033789996 -0.058525186 -0.03956568 -0.011262019
0000c0 d7 b9 a0 ba d0 d9 b0 bd 69 57 d3 3d c8 4d 5f bd
       -0.0012262416 -0.086352944 0.103194065 -0.054517537
0000d0 b7 40 c5 3c 51 3c 27 3d 59 b6 bf 3d 6e 47 19 3e
       0.02407871 0.040829007 0.09360952 0.14968655
0000e0 68 85 16 bd 92 17 99 bd 3e 47 7b 3d bb 69 a9 3c
       -0.03674832 -0.07475199 0.06134724 0.020680299
0000f0 e0 03 29 bd bf 53 9e bd a7 36 d0 bc 1f 94 07 bd
       -0.04126346 -0.07730817 -0.025416685 -0.033100244

conv4.0.weight f4 [128, 64, 3, 3]
000000 b0 cd a0 3c f3 00 8a bc 39 3e cd bc f6 5b 13 bd
       0.01962933 -0.016846156 -0.025054084 -0.035976373
000010 99 15 fb bc e0 c5 fe ba 7c 4f 04 bd 96 79 8c bc
       -0.030649947 -0.0019437633 -0.032302365 -0.01714782
000020 80 1e 26 bc 24 aa e3 bb 46 30 f6 bc e5 95 55 3c
       -0.010139108 -0.0069477726 -0.030052315 0.013036226
000030 81 f2 77 bc 39 cf 8e 3c e6 b4 3a bc 6b 2b 00 3d
       -0.015133501 0.017432796 -0.011395669 0.031291407
000040 52 b5 bf 3a 48 bf 8f bc 55 08 0b 3c 92 ba 10 3c
       0.0014626181 -0.017547265 0.008485873 0.008833544
000050 0b 98 be 3a 7c 45 9d 39 09 ae 50 bd ba 88 5e bd
       0.0014541162 0.00029997143 -0.050947223 -0.05432961
000060 4b 1f d5 3c de 1c b8 bc 40 79 0f bc 19 64 e9 bc
       0.026015898 -0.022474702 -0.008756936 -0.028490113
000070 13 01 21 3c 10 52 9e 3c 56 c0 f3 3c f6 3a 6a 3c
       0.009826916 0.01932624 0.029754799 0.014296284
000080 d5 3c b6 3c a7 9d a4 3c cf 85 0e bd 63 83 3c 3c
       0.022245804 0.020094706 -0.03479558 0.011505934
000090 0c d9 d2 bc 61 f1 d6 3a 93 42 2f 3d de 68 78 bb
       -0.025738262 0.0016398841 0.0427881 -0.0037904303
0000a0 25 8a 3e bc f0 76 9f bc bc 02 d1 bb 0a 0b 8d 3c
       -0.011629616 -0.019465894 -0.0063785 0.017217178
0000b0 61 7a ed 3c a3 93 8a bd 64 a1 dd bd c0 d7 7b bd
       0.028989019 -0.06766441 -0.108217984 -0.061485052
0000c0 2d 16 c3 bc 40 73 1a bd 31 05 89 3a e4 16 d3 bb
       -0.023814285 -0.037707567 0.0010453818 -0.0064419378
0000d0 20 ce c0 3c c0 b2 b5 3c fa b4 9a bc 6a 6b ad bb
       0.023535788 0.022179961 -0.018885124 -0.005292346
0000e0 37 15 a6 bc 3a 9c 8d bd 53 1b 24 bb ed 9c 9d bb
       -0.020273788 -0.069145635 -0.00250407 -0.004809967
0000f0 85 24 a3 3c 69 8c 70 bc b7 f9 32 bd 04 25 09 bd
       0.019914875 -0.014681914 -0.043695178 -0.033482566
000100 f8 75 c1 bb 4c 0c 30 3d 8c 69 4d 3c 2a f2 36 3d
       -0.0059039555 0.042980477 0.012537371 0.04466454
000110 43 8c 44 3b 66 5d a5 3b a2 f0 2b 3c 13 1f d7 3b
       0.002999083 0.0050465344 0.010494383 0.0065649836
000120 67 d5 19 3c 83 c1 79 bc b1 1e ac 3c 4c e7 0a bd
       0.009389258 -0.015243891 0.021010729 -0.03391199
000130 bd 08 57 b9 d5 28 26 3b a1 eb 41 3d 47 aa 29 bc
       -0.00020507253 0.0025353928 0.047343854 -0.010355539
000140 80 3a c1 3c 7e 81 a8 3c 59 c6 a0 3c 3c 1b dc bc
       0.023587465 0.02056956 0.01962583 -0.026868455
000150 21 4f ba 3c cb ad 27 bd 87 95 8a 3c db 05 2c 3d
       0.02274281 -0.040937226 0.016917003 0.04199777
000160 83 94 fe bc 43 16 39 bd 7d 4d f4 bc 1b 2e 42 3b
       -0.031076675 -0.045187246 -0.029822106 0.0029629532
000170 cb a6 35 bd 3c e0 c0 bb 79 c5 3d 3d 0e 2e c5 bb
       -0.04434852 -0.005886106 0.046330903 -0.006017453
000180 1e 54 8d 3c 59 4e 30 bc 01 3c 00 bb e1 ef 9c 3c
       0.017252024 -0.010760867 -0.0019567015 0.019157352
000190 c0 f1 2c bd e4 af 35 bc ee 46 6a bd 2e 9a 45 bd
       -0.04222274 -0.011089299 -0.05719655 -0.04824274
0001a0 58 a8 3c bc 0f fd 61 bc d3 c9 94 bc a5 4e 1f 3d
       -0.011514746 -0.013793244 -0.018162644 0.03889336
0001b0 af d1 2a bc 1d ec b8 bc 61 a1 5f 3c 46 bf 79 3a
       -0.010425969 -0.022573525 0.013649316 0.0009527098
0001c0 fe 92 30 bd 3c 1b 02 3c 17 76 b0 bb a3 3c 26 bd
       -0.043108933 0.0079410635 -0.005385171 -0.04058517
0001d0 c1 a5 00 bd a2 25 3c 3c b7 16 02 bd a2 6f 89 bc
       -0.031408075 0.011483582 -0.031759944 -0.016776863
0001e0 8f e9 8f 3d 8b 27 28 3c 44 27 ec bc 09 b1 68 bd
       0.0702697 0.010263334 -0.028827317 -0.05680946
0001f0 77 94 3c 3c da 27 f9 bc 90 4f 5a 3b 16 95 e3 ba
       0.011510006 -0.03041451 0.0033311583 -0.0017363157
000200 96 e9 b4 bc 3b 11 f2 bc c3 a9 a1 3c db 66 15 bd
       -0.022084039 -0.029549232 0.019734269 -0.036475044
000210 ed a3 9e bc 85 58 b4 bc 88 50 eb bb ba b4 f1 bc
       -0.019365275 -0.022014866 -0.007181231 -0.029505122
000220 e9 9d 1c bd 7a 98 2b 3d be 36 23 bd fe c4 fb bb
       -0.038236532 0.04189346 -0.039847128 -0.0076833954
000230 ff 11 ba 3a 1b a0 13 3d 75 68 d7 bc 44 16 a8 bb
       0.0014196037 0.03604136 -0.026294926 -0.0051296074
000240 86 85 22 bc 6e 32 32 bd bb d3 76 bd 78 7f d1 bb
       -0.00991953 -0.043505125 -0.060260516 -0.0063933693
000250 47 15 69 bc 78 df 63 3d 87 12 e0 3c 1f c2 2f 3d
       -0.014226264 0.05563304 0.027352585 0.042909738
000260 7a 9d 8b 3c 10 e1 8c 3b b7 50 34 bd 23 59 01 3d
       0.017042864 0.0042992905 -0.04402229 0.031579148
000270 7f 48 83 bd c6 20 ce 3b 6f 33 73 bb ef 08 0c 3b
       -0.06410312 0.006290528 -0.0037109514 0.002136763
000280 c9 99 9d 3c 49 af 0e bd 2c e3 66 bd 8d 40 15 3d
       0.01923837 -0.034835134 -0.05636899 0.036438514
000290 51 88 c6 bb df 52 93 bc 58 3a 65 bc 60 87 95 bc
       -0.0060587307 -0.017983852 -0.013990961 -0.018253028
0002a0 b5 01 e8 3c 63 42 84 bc e3 6b e0 bc f2 b6 22 3d
       0.028321126 -0.016144937 -0.027395194 0.03972525
0002b0 d3 26 f6 bc 0e 18 2d bd bb aa 20 3c 79 c9 52 bc
       -0.03004781 -0.04225927 0.00980633 -0.012865418
0002c0 85 1c 0f bc 56 65 b6 bc 5d 7a d9 bc 3f 56 9c 3c
       -0.008734827 -0.022265118 -0.026547605 0.019084094
0002d0 9c 32 ff bc 52 00 df bc c8 88 0e 3c 84 68 99 3d
       -0.031152062 -0.027221832 0.008699603 0.07490638
0002e0 44 69 55 bc d5 b5 a3 3a 38 a8 89 3d fc 1a e4 3c
       -0.013025586 0.0012490103 0.06721538 0.027844898
0002f0 cb 32 c7 bb a8 eb ec 3c d3 c9 9f bc 71 7e e2 bc
       -0.006079053 0.028920963 -0.019505417 -0.027648183
000300 7f 60 96 3c 1b f4 b0 bb 74 a4 28 bd 8b e2 02 3d
       0.01835656 -0.0054001934 -0.04117246 0.03195433
000310 98 91 7a bd 2a 4b 46 bd 2f 54 39 3c cf 96 3e bd
       -0.061174005 -0.048411526 0.011311575 -0.04653054
000320 00 d5 aa 3c 46 83 87 3c 08 b3 d1 bb 0d 40 05 3c
       0.02085352 0.016542088 -0.006399516 0.008132947
000330 d4 a9 d0 3c 7a 46 95 3b 4f 7d 86 bb ce e9 35 bc
       0.025471605 0.0045555206 -0.0041042934 -0.011103107
000340 41 61 0b bd 37 ce 11 bd 57 44 33 bc 7e 20 58 bd
       -0.034028295 -0.035597052 -0.010941586 -0.052765362
000350 47 e9 05 bd ca 6b c7 bc 4b 78 fa bc dd a8 4f 3d
       -0.032693174 -0.02434339 -0.030574938 0.05069815
000360 9a 2b 80 bd e2 08 65 bd f0 df 01 bd ee a5 b7 bc
       -0.06258316 -0.055916674 -0.031707704 -0.022417989
000370 9c d6 0f bd f8 98 00 3c f9 5f 05 bb ea b1 23 3c
       -0.035116777 0.007848971 -0.0020351394 0.0099911485
000380 4b 8e 32 bd 39 e2 38 bd f2 89 9d bc 48 cb 77 bd
       -0.043592732 -0.045137618 -0.019230817 -0.0604966
000390 71 5f 7b bc 44 14 81 3c 14 30 15 3c d7 30 17 3d
       -0.015342579 0.015756734 0.009105701 0.03691181
0003a0 a4 28 d7 bc 06 cb ba bc f8 02 10 3d 86 e9 dc 3c
       -0.026264496 -0.022801887 0.03515908 0.026966821
0003b0 cc 40 dc bc 66 e0 cb bc e3 b4 cf 3c 55 8c 14 bd
       -0.026886366 -0.024887275 0.025354808 -0.036266644
0003c0 22 5a 57 3d 27 78 04 3d 53 cd c7 3c 16 91 0d 3d
       0.05257619 0.03234115 0.024389898 0.034562193
0003d0 45 e8 ed 3b 58 3b 82 3c 9d 52 30 b9 8d 16 b2 bb
       0.0072603547 0.015897438 -0.00016815444 -0.005434817
0003e0 33 e9 4a 3b cc 30 f9 3b 67 07 8a 3c 6a 24 4d 3d
       0.0030961751 0.007604694 0.016849233 0.050083555
0003f0 24 f2 2b bb f5 5e cc bb 73 37 0d 3d 28 c0 48 bc
       -0.0026236856 -0.0062369057 0.03447671 -0.012252845

conv4.0.bias f4 [128]
000000 98 d4 99 bd 5f f0 d0 bb 15 7f 42 bc 36 19 a8 bc
       -0.07511252 -0.0063763107 -0.011871119 -0.020519834
000010 30 ae 00 bd 5d ec be bc 75 9b d3 bc 10 ce 6c bd
       -0.03141612 -0.023306066 -0.025830964 -0.057813704
000020 f9 fe 16 3d 17 78 64 bc 0c 71 98 3d b5 73 55 bd
       0.036864255 -0.013944647 0.07443437 -0.0521123
000030 9b 5d ad bb 28 6d 22 bd 60 92 f5 bc 67 26 8e bc
       -0.0052906997 -0.03965488 -0.029977024 -0.017352296
000040 e1 b2 75 bc c5 e1 ba 3d 02 2f bf bc ec ce f8 3d
       -0.014996261 0.09125093 -0.023337845 0.12148842
000050 77 04 94 3d be 03 66 bd 6f cf 8a 3b 83 32 0c bd
       0.07227414 -0.056155913 0.004236154 -0.03422786
000060 3b c9 d1 3c 06 76 a2 3a bf 97 0a bc 6e 6f ff bc
       0.02560865 0.0012394793 -0.008459031 -0.031181064
000070 b7 62 a3 bc 6e 4b 12 bd bc 4e 05 3e 1c 01 30 bc
       -0.019944532 -0.035716467 0.13018316 -0.010742452
000080 63 76 38 bc 75 1b 65 bd 81 cf 72 bc cb af 4d bc
       -0.011258694 -0.05593439 -0.014819981 -0.012554119
000090 e0 7b 7f bc 74 77 0b bd 04 66 c1 bc b7 45 2a bd
       -0.015593499 -0.034049466 -0.023608215 -0.04157039
0000a0 39 6e d1 bc 3f 68 ab bc e4 c2 78 bd 2e d2 f9 bb
       -0.025565254 -0.020923732 -0.060732737 -0.0076239323
0000b0 23 2e cf 3c 7d 2b 87 3d a3 cb e8 3d 29 ef f9 bc
       0.025290554 0.066000916 0.113669656 -0.030509548
0000c0 e3 2d 33 bd e0 87 57 bd 92 ea dc bc 7c 96 28 bd
       -0.043744933 -0.052619815 -0.02696732 -0.041159138
0000d0 3e 20 9f 3d 9d 77 6b bd 87 9e 1d 3c a7 e8 b5 bc
       0.077698216 -0.05748712 0.009620315 -0.022205664
0000e0 bc 91 23 bc f3 aa 1c bc a9 97 18 3c c5 96 ab bc
       -0.009983476 -0.009562242 0.009313502 -0.020945916
0000f0 03 84 ac 3d 37 cd d9 bc fc 58 3c bd fd 64 2f bd
       0.08423617 -0.026587112 -0.0459833 -0.04282092
000100 d8 0d cc 3c 54 97 14 3d f2 62 32 3d f1 f5 d8 bb
       0.024908945 0.03627713 0.043551393 -0.0066211154
000110 ed 06 a9 bc 60 72 74 3d af cf c3 3d 6f 9c 63 bd
       -0.020633185 0.05967939 0.09561097 -0.05556911
000120 cf 7d da 3d ff 89 dd 3d 18 23 83 3d 50 00 70 bd
       0.10668527 0.10817336 0.06403178 -0.058594048
000130 2c 78 8f bb 56 53 0b bd 93 fd e3 3c 73 f6 ef bc
       -0.0043783393 -0.034015022 0.027830875 -0.02929232
000140 ad c8 39 bd 96 81 4a 3c ac b7 f7 bc d7 9a 01 bd
       -0.045357395 0.012359997 -0.030238949 -0.031641807
000150 1c 9d 58 bd b8 1e 80 3d 65 87 69 bd 1c 30 a3 bc
       -0.052884206 0.06255859 -0.057013888 -0.019920401
000160 7a 2f c1 3d 96 73 62 bd 17 3d bb bb b6 56 97 bd
       0.094328836 -0.055286013 -0.0057140696 -0.07389586
000170 70 da 33 bd 59 78 c3 3a 3a 6d f4 bb 24 c1 ca 3d
       -0.04390949 0.0014913186 -0.00745931 0.0990012
000180 5b 71 fe bc 2a f6 a8 3c 36 ba b2 3c ce 97 3c bd
       -0.031059911 0.020625193 0.021817308 -0.04604321
000190 dd 8c 7f bc 83 70 b8 bc 1e 4f 70 bd 81 22 63 bd
       -0.015597549 -0.022514587 -0.058669202 -0.055452827
0001a0 7a 5c 88 bc 4b 69 91 bd 49 74 8a bc 3c e5 45 3d
       -0.016645659 -0.07100161 -0.016901152 0.048314318
0001b0 98 f6 81 bb 15 bf e6 bb f7 bd cc 3d be b1 39 bd
       -0.003966164 -0.0070418217 0.099971704 -0.045335524
0001c0 fa f1 e5 bc 8e ad b2 3d 07 64 c0 bb e2 65 1e 3d
       -0.028069485 0.08724509 -0.005871299 0.03867138
0001d0 30 ed 2d bc 5e d8 c4 3d bc c1 4c ba ed cd a9 bd
       -0.010615632 0.09611581 -0.0007810851 -0.0829123
0001e0 a8 5e dd bc 28 d9 2e bd fa b5 95 bd 5b 90 ae bc
       -0.027022675 -0.042687565 -0.073101 -0.021309068
0001f0 55 3e 3f 3d 71 da 47 3d 4d ed bc ba e2 a6 fd bc
       0.046690304 0.048792306 -0.0014413983 -0.030963365

linear.weight f4 [10, 2560]
000000 b7 b4 44 3d 0a 11 ce 3c b4 be ad 3c 2b 6c 8b 3c
       0.048023906 0.02515461 0.021209098 0.017019352
000010 74 ea 02 3d bf 95 4c 3c 57 76 01 bd fc 41 77 3c
       0.031961873 0.012486874 -0.031607 0.0150914155
000020 9a 84 d4 bc 18 43 f2 bb 51 f2 73 bc 6c 44 52 3c
       -0.025942136 -0.007393252 -0.014889316 0.012833696
000030 83 b5 b8 3b 05 f5 f5 bb 03 38 35 3d c0 4b ad bb
       0.0056368723 -0.0075060152 0.04424287 -0.005288571
000040 2b b5 f2 3c 64 14 d2 ba 05 42 0d bb 05 ec 86 bc
       0.029627403 -0.0016027805 -0.0021554243 -0.016469965
000050 06 f0 cc ba c6 b6 b8 3c 9f fa 1a 3c 63 81 a1 bb
       -0.0015635497 0.02254809 0.009459167 -0.004928754
000060 16 22 2a 3d fb 44 56 3c 21 d3 09 3d fe 93 af 3c
       0.041536413 0.01307797 0.033648614 0.021432873
000070 98 aa 52 ba d8 38 c0 bb 50 49 97 3c 01 6d 1d 3d
       -0.00080362847 -0.0058661513 0.018467575 0.038434032
000080 fa 17 93 bc ce 28 23 bb 8a 3a cb bb 20 96 89 3c
       -0.017955769 -0.0024896148 -0.0062020468 0.016795218
000090 d1 74 e8 bc d4 cc 98 3c cd d2 b1 3c 3b 51 01 3d
       -0.028376015 0.018652357 0.021706963 0.031571608
0000a0 1e 7a 38 3d c0 dd 4e 3a c4 cd 89 3c 66 3f 9f 3b
       0.045038335 0.00078913197 0.01682175 0.0048598526
0000b0 b0 44 22 3d 28 4a 78 3d c2 e0 75 3d 0f ab b3 3c
       0.039616287 0.060617596 0.0600288 0.021932153
0000c0 73 d0 62 bb f4 13 e3 3b d2 23 48 3c 16 4f 26 bb
       -0.0034609109 0.006929869 0.0122155715 -0.0025376729
0000d0 4c 99 0b bd 99 d5 da bb d4 d2 9d bc 87 a3 5b bc
       -0.034081742 -0.006678295 -0.01926557 -0.013405687
0000e0 bc 5f 7a bd d3 26 34 bd 67 a4 8d bd 97 d0 89 bd
       -0.061126456 -0.04398234 -0.06916123 -0.067292385
0000f0 24 34 66 3c 13 ca 92 bc db 14 89 bc ca e8 96 bc
       0.014050517 -0.017918622 -0.016733577 -0.01842155
000100 1f 45 b0 3c 0a 8e d1 3c f0 b3 57 3d a3 0a 61 3d
       0.021517335 0.025580425 0.052661836 0.054941785
000110 46 49 2a ba b9 92 fa bb 07 7f a4 bb c8 cb 36 bc
       -0.0006495904 -0.0076468852 -0.0050200257 -0.011156984
000120 7d bb 4c 3d 9f 43 4f 3c fc be 6c 3b 53 f5 82 bb
       0.04998349 0.0126503995 0.0036124578 -0.00399653
000130 17 14 3b 3d c8 bc 47 bc 28 ad bc bb 3d e2 15 3c
       0.045673456 -0.012191005 -0.0057579465 0.009148178
000140 b9 62 49 3d 8f 20 8b 3d ab 37 6f 3d fd 1a 80 3d
       0.049166415 0.067933194 0.0584027 0.062551476
000150 04 75 78 3c 59 91 93 bc 68 ab 5f bc a5 9f ac 39
       0.015164617 -0.018013643 -0.013651706 0.0003292534
000160 12 41 2d bc 2b e8 9e b9 f2 47 83 bc 7a 39 66 bc
       -0.010574596 -0.00030309087 -0.016025517 -0.014051789
000170 17 c8 eb bc 99 b8 c3 b9 f9 fc 0f 3c 82 04 38 bc
       -0.028781934 -0.00037330834 0.008788341 -0.0112315435
000180 4b 15 16 bd 52 6d 4a bd a5 f7 3f bd 52 d5 67 bd
       -0.0366414 -0.049420662 -0.04686703 -0.056599922
000190 fd c0 f6 3b 37 b7 99 3b f0 f1 11 bb e0 63 69 3b
       0.00753033 0.0046910304 -0.002226945 0.0035612509
0001a0 a9 d6 8e 3c 51 f3 71 3c 33 65 92 3c 02 0d 3d bb
       0.017436342 0.014767484 0.017870521 -0.0028846865
0001b0 75 5d 7b bc ff de d1 3b c6 0f b5 bc de a8 91 3c
       -0.015342106 0.006404757 -0.022102248 0.017780717
0001c0 d7 9a cb bc 28 24 a9 ba bc bc 81 3c fe c6 58 bc
       -0.024854107 -0.0012904452 0.015837066 -0.013231037
0001d0 9f 20 9d bc 46 a2 0d 3d 1c 38 0a 3d 32 a6 24 3d
       -0.019180594 0.034578584 0.033744916 0.04019756
0001e0 7e b2 15 3c a6 57 3c 3c a9 f7 f8 3b 82 3f aa bb
       0.009136794 0.011495506 0.0075978828 -0.005195559
0001f0 c0 9f 88 3d bb e3 65 3d 7a e2 96 3d 6a fb e6 3d
       0.06671095 0.056125384 0.07367416 0.11278422
000200 bc d3 de 3c a6 f4 ef ba 9d d0 a2 3c 09 62 41 3c
       0.027200572 -0.0018307164 0.019874865 0.011803159
000210 99 13 24 bc bf 38 db 39 4e 9a 0f bc 8f a7 16 bb
       -0.010014438 0.00041813214 -0.008764816 -0.0022988056
000220 9d d2 2c bc 3a 7f a4 3b 64 cb 3c 3c c3 4c 7c bc
       -0.010548261 0.0050200494 0.0115231015 -0.015399161
000230 ad 60 08 3d 42 99 5f 3d d8 78 68 3d 82 5f 79 3d
       0.033295322 0.054589517 0.05675587 0.0608821
000240 ad ea 8d 3c 8f 7c 0f 3d 89 79 91 3c 03 be 5b 3d
       0.017323816 0.035030898 0.017758148 0.053648006
000250 29 e8 0d 3d e7 ca 80 3c 0f 2f bc 3c 30 20 c8 3b
       0.034645233 0.015721751 0.022971658 0.0061073527
000260 ed b3 56 bc 09 27 b8 bc 17 d4 ac bc e0 7f 45 bc
       -0.013104421 -0.02247955 -0.021097226 -0.012054414
000270 62 03 08 bd 9e 5c 53 bd 33 d7 38 bd 71 b4 c0 bc
       -0.03320635 -0.051602 -0.045127105 -0.023523541
000280 fb 9f 3a 3b f8 a8 9d bc 16 ac f5 3b b4 a5 06 ba
       0.0028476703 -0.01924561 0.007497321 -0.0005136386
000290 d4 43 0c 3b ce 61 cc bb 17 25 58 bc 68 8c cf 3b
       0.0021402733 -0.006237245 -0.013192437 0.0063338764
0002a0 86 10 65 3d 96 6f 13 3b e3 05 35 bb 51 20 12 bb
       0.05592396 0.002249693 -0.0027621917 -0.0022297094
0002b0 60 63 9c 3c 74 ce 20 3b 3f b1 e2 bb 23 3a a1 3b
       0.019090354 0.0024537118 -0.006918102 0.0049202605
0002c0 49 37 89 3c 48 b3 86 ba f8 34 3f 3b 3b a3 04 bc
       0.016749995 -0.0010276819 0.002917586 -0.008095558
0002d0 76 56 39 3c 2b dc e7 3b 4b 25 91 3c cb e4 f1 38
       0.011312118 0.0070758066 0.017717978 0.000115343915
0002e0 d9 30 ef 3a f5 25 56 3c 51 7b a3 3c 23 99 49 bc
       0.0018248811 0.013070573 0.019956263 -0.012304577
0002f0 cb 71 aa bb 80 37 52 3b f0 be 0e bd 83 fb 8d bc
       -0.0052015535 0.0032076538 -0.03485006 -0.017331844
000300 68 82 84 bb 95 2d 75 3b 6f 9c 69 3c c9 64 09 bc
       -0.004043866 0.0037411202 0.014258488 -0.008385845
000310 18 71 81 bc 6b 38 7c bc a4 02 85 3c 3d eb b9 bb
       -0.015800998 -0.0153943105 0.01623661 -0.0056737945
000320 02 7c db 3c b7 e6 67 3c 96 96 d0 3c b9 c7 dd 3b
       0.02679253 0.014154128 0.02546243 0.0067681936
000330 15 bf 1c 3d 42 73 6c 3d 2d 8e 5c 3d ac e4 f3 3c
       0.038268168 0.057727106 0.053846527 0.029772125
000340 0c ec ad 3b e8 8c ac 3c 24 dd a8 bb 57 b1 73 3c
       0.00530768 0.021063283 -0.005153315 0.014873824
000350 ed 07 73 bb 14 78 20 bb 1d 7b b2 ba 9a 5c 1b 3c
       -0.0037083582 -0.0024485635 -0.0013617013 0.009482527
000360 84 53 e0 bc 0c 54 41 bc 58 44 a3 39 c8 55 95 bc
       -0.027383573 -0.0117998235 0.00031140703 -0.01822938
000370 b4 e3 39 3b a4 b7 af 3c 95 2e 21 3d eb 22 f0 39
       0.0028364481 0.021449871 0.039351065 0.00045802383
000380 1b 75 5a 3c 12 44 90 3c 91 7a 6b 3c ca a7 08 3c
       0.013333584 0.017610583 0.014372484 0.008340785
000390 6d 73 c1 b9 4b d0 61 bc 3b 3e fd 3b e9 b8 13 3c
       -0.00036897828 -0.013782571 0.0077283657 0.009016254
0003a0 e6 22 2f 3b a2 4d 29 3c e5 b1 33 3c 94 6e 41 bb
       0.0026723682 0.0103334505 0.010967706 -0.0029515373
0003b0 bb 54 a7 bb 37 c7 48 bc f6 d7 64 bb 6c fb d9 bb
       -0.005106536 -0.012254528 -0.0034918762 -0.0066522863
0003c0 1a a8 6d 3c c2 8e b6 3c 49 5e ab 3c 22 17 c9 3c
       0.014505411 0.02228487 0.020918982 0.024547163
0003d0 53 f5 cd 3c be 71 2c 3b 4f cc a8 3c 59 4b 6d 3d
       0.025141394 0.0026312913 0.020605234 0.057933185
0003e0 19 24 55 3c de 14 72 bb eb 9e 9d 3b 96 09 bb 3a
       0.013009095 -0.0036938707 0.0048102043 0.0014269825
0003f0 0e 65 02 3c 02 8a c1 bc 3a e3 cb bb 23 ed 0a 3c
       0.007958664 -0.023625378 -0.006222156 0.008479389

linear.bias f4 [10]
000000 12 6d 58 3c 76 2f 74 bd 46 53 53 3d ed f2 bf 3b
       0.013209598 -0.059615575 0.051593088 0.0058578164
000010 1e ab 6e bc 44 3a 95 bb 42 e3 9a bd 1d a3 d6 bc
       -0.014567165 -0.004554065 -0.07562877 -0.026200825
000020 a7 7d 0e 3c b4 96 d3 bc
       0.00869695 -0.025828697
